logs/train/runs/pgcu/checkpoints/epoch=77-val_psnr=29.7002-val_ssim=0.8228.ckpt (torch, 732014 bytes, 192 tensors)

net._orig_mod.FPConv.weight f4 [4, 1, 3, 3]
0.19065674 0.063499294 0.19043732 0.7763269 -0.28305215 -0.16523041 -0.37070167 -0.14739251
0.15692016 -0.30585423 0.18462923 0.07641212 0.18795657 -0.21913153 0.062160157 -0.08295404
0.13601583 0.015931 -0.21349894 0.09484421 0.07495572 -0.08718565 0.18437734 0.58832616
-0.46848717 -0.2514319 0.072755106 -0.39253777 -0.02210145 -0.26336852 0.47467732 -0.21870394
0.34512445 -0.022281088 0.05819639 0.35992676
00000000: 853b 433e eb0b 823d 0002 433e 5cbd 463f
00000010: 36ec 90be 2932 29be 9ccc bdbe 10ee 16be
00000020: aeaf 203e ed98 9cbe 720f 3d3e f57d 9c3d
00000030: b077 403e 0464 60be a69b 7e3d cfe3 a9bd
00000040: bc47 0b3e ba81 823c 779f 5abe ae3d c23d
00000050: 6282 993d 648e b2bd 6acd 3c3e 8b9c 163f
00000060: 8ddd efbe afbb 80be a100 953d b6fa c8be
00000070: 1a0e b5bc 3dd8 86be e808 f33e edf3 5fbe
00000080: 27b4 b03e d486 b6bc 565f 6e3d 5248 b83e

net._orig_mod.FPConv.bias f4 [4]
-0.12055455 0.39792776 -0.0019503036 -0.1337481
00000000: 4ee5 f6bd 30bd cb3e 54a1 ffba 43f5 08be

net._orig_mod.FMConv.weight f4 [4, 4, 3, 3]
0.1792226 0.13695203 0.1595737 0.20868002 0.1998632 -0.020361435 0.17232251 0.11926268
0.08591053 -0.16654678 -0.1950046 -0.10339922 -0.2788108 0.0053405277 -0.04911253 -0.055033922
-0.07323679 -0.12301056 0.06343617 -0.11894131 0.10133858 -0.20064373 0.01503178 0.03581408
0.037927166 -0.02594464 0.23592119 -0.20070869 -0.14469115 -0.11243523 -0.0061098435 -0.07049626
0.057653543 -0.1254408 -0.12259492 -0.09724224 -0.043703668 0.058646295 -0.03480279 0.07210075
-0.160433 -0.2196541 0.0032944654 -0.13632393 -0.01567591 0.21534647 0.27097148 0.046785552
0.05112085 0.14790471 0.17632493 0.00376828 0.113280036 0.15144534 0.0060208384 -0.07093972
0.1628514 0.015273342 -0.05078048 -0.119970925 -0.057872068 0.023948453 -0.033751648 -0.16250141
-0.14251147 -0.19692187 -0.17300968 -0.2169514 -0.18862996 -0.16089748 0.03131669 -0.008522578
0.06333728 -0.15082863 -0.04922376 -0.053127486 -0.022041349 -0.1648988 -0.044935808 -0.15346049
-0.054456692 -0.062220402 -0.032411866 -0.109163865 -0.13999191 -0.18364877 -0.15132134 -0.09970537
0.0845436 -0.13156596 0.07480862 -0.017520823 -0.13249978 0.056048483 -0.15116087 -0.1316797
-0.056910586 -0.15776715 0.051743258 -0.0798277 0.03231045 -0.03812442 0.06447295 -0.16960327
0.04660263 0.024548026 0.06539705 0.17891215 0.16194081 -0.07345012 0.01644079 0.016360901
0.1564612 -0.035597958 0.10411682 -0.075146146 0.06538471 0.24242485 0.23231 0.02640757
0.32200992 0.24996217 0.17068489 0.086077556 0.36128303 0.20834307 -0.24075563 -0.099022225
-0.16635884 -0.33925834 -0.37377533 -0.2690491 -0.14228538 -0.300269 -0.3166767 -0.14231513
-0.1043717 0.05347651 -8.4347295e-05 -0.10631047 0.14019723 -0.0012469321 0.12844102 0.10413515
00000000: 2186 373e 273d 0c3e 4a67 233e 37b0 553e
00000010: f0a8 4c3e 06cd a6bc 5075 303e fe3f f43d
00000020: dcf1 af3d 3d8b 2abe 49af 47be f8c2 d3bd
00000030: 4ac0 8ebe 98ff ae3b 382a 49bd 406b 61bd
00000040: 2cfd 95bd f6ec fbbd d3ea 813d 8097 f3bd
00000050: 9a8a cf3d 8d75 4dbe db47 763c c9b1 123d
00000060: 8459 1b3d db89 d4bc 5395 713e 9486 4dbe
00000070: eb29 14be 7144 e6bd 1535 c8bb 5860 90bd
00000080: 1f26 6c3d 8e73 00be 0c13 fbbd f126 c7bd
00000090: 9e02 33bd 1937 703d 5f8d 0ebd 8fa9 933d
000000a0: 8c48 24be 01ed 60be f5e7 573b 8098 0bbe
000000b0: c46a 80bc c983 5c3e c6bc 8a3e 35a2 3f3d
000000c0: 1964 513d 5574 173e 868e 343e 3ff5 763b
000000d0: 5dff e73d 7d14 1b3e 744a c53b d848 91bd
000000e0: 84c2 263e 0a3d 7a3c 31ff 4fbd 51b3 f5bd
000000f0: 430b 6dbd 8c2f c43c 2b3f 0abd c566 26be
00000100: 87ee 11be e3a5 49be 7329 31be 8228 5ebe
00000110: 3628 41be 4fc2 24be ee45 003d 48a2 0bbc
00000120: fab6 813d d272 1abe da9e 49bd 359c 59bd
00000130: 0f90 b4bc 3bdb 28be 9c0e 38bd bf24 1dbe
00000140: fb0d 5fbd d2da 7ebd 4ec2 04bd 4e91 dfbd
00000150: 0a5a 0fbe 6c0e 3cbe fbf3 1abe 5432 ccbd
00000160: 3225 ad3d 3ab9 06be 4335 993d d487 8fbc
00000170: 06ae 07be 1893 653d eac9 1abe 0bd7 06be
00000180: 131b 69bd b68d 21be bdf0 533d b57c a3bd
00000190: f657 043d 5a28 1cbd 650a 843d 7bac 2dbe
000001a0: 66e2 3e3d f118 c93c e3ee 853d bf34 373e
000001b0: d0d3 253e 046d 96bd d6ae 863c 4c07 863c
000001c0: 5d37 203e 2acf 11bd 333b d53d 39e6 99bd
000001d0: 6be8 853d 383e 783e ace2 6d3e b054 d83c
000001e0: 7cde a43e 15f6 7f3e 05c8 2e3e 6e49 b03d
000001f0: 17fa b83e e357 553e a588 76be 2acc cabd
00000200: f959 2abe 45b3 adbe 7b5f bfbe cec0 89be
00000210: 42b3 11be dcbc 99be 7323 a2be 0fbb 11be
00000220: d4c0 d5bd 2f0a 5b3d 9ce3 b0b8 4eb9 d9bd
00000230: dd8f 0f3e 1970 a3ba 0b86 033e cf44 d53d

net._orig_mod.FMConv.bias f4 [4]
0.20609069 0.2541839 0.30051693 -0.048733782
00000000: 7009 533e 6424 823e 5bdd 993e 139d 47bd

net._orig_mod.FConv.weight f4 [128, 8, 3, 3]
-0.20322223 0.07776378 -0.07265751 0.043786827 0.22952157 0.061606053 0.18415718 0.13599968
-0.047168877 0.06777215 0.19108182 0.051247824 -0.038959224 0.0015503649 -0.049127698 0.014588177
-0.13040158 -0.35998517 -0.310918 -0.3455917 -0.029939821 0.06165859 0.09144943 0.25107166
-0.09058365 -0.036866967 0.16107757 0.76219934 0.52086675 -0.22603628 0.3934819 0.32528684
-0.30544022 -0.096573 -0.114000365 -0.5555825 -0.453104 0.012711087 0.06714376 -0.1912542
-0.4236621 -0.29516187 -0.06781392 0.10416957 -0.01009844 0.0708762 0.03897433 0.056317747
-0.0063134576 -0.15115456 -0.15150085 -0.12957303 0.0193472 -0.0713276 0.013336206 -0.2786128
0.1457775 -0.29167235 -0.038846754 0.5147366 -0.30491692 0.18671209 0.2826895 0.082169615
0.008156733 -0.14648056 -0.1766738 -0.10671221 0.011543895 -0.17958856 0.13624349 0.22635245
0.20512506 0.14875473 0.36204782 0.11162862 0.29184738 0.34193644 -0.07552165 -0.017738529
-0.07008478 -0.16604127 0.21479273 0.05728263 0.2239253 0.53137606 0.5188946 -0.1087111
0.06599275 0.12617087 -0.027836565 -0.28958866 -0.03740254 -0.3205696 -0.41577125 -0.44085205
0.06137083 -0.017301003 -0.123385236 -0.16497712 -0.00749419 -0.26793912 -0.4665263 -0.2903824
-0.35605228 -0.02672261 0.43496752 0.4999794 -0.27082247 -0.020837659 -0.044125535 -0.18599264
0.09244732 -0.083217934 -0.08732819 -0.14077978 -0.17080377 0.17251326 -0.115212165 0.0429375
-0.0036919985 -0.1151939 0.08753896 0.18846676 -0.03675746 0.12918633 0.051433627 -0.11784026
-0.00121176 0.05942251 -0.22871703 0.2837268 0.08107884 0.049026523 0.10623926 0.028762935
0.03152287 0.05145492 -0.20129077 -0.16897555 -0.038486768 -0.10687943 0.14500389 0.021225432
-0.329438 -0.1894694 -0.15252623 -0.15308492 0.12804995 0.1370952 -0.009057461 0.31056216
0.26503032 0.27194187 -0.19987446 -0.09533245 -0.004651396 -0.36490855 0.09817562 0.1544838
-0.24250935 0.1125298 -0.022399412 -0.037017893 -0.10183962 0.1548425 -0.014689854 0.027660081
0.061808843 -0.00722446 -0.18727668 -0.17196687 -0.3713323 0.15470056 -0.20656338 -0.21397026
0.35531506 0.016623808 -0.119193 0.3228617 -0.9094543 0.30857205 -0.31553403 -0.05954793
-0.12658471 0.20198688 -0.32378286 -0.27286586 -0.08103812 0.1793877 0.18752445 0.17458431
-0.043947853 -0.39334694 0.034470707 0.1481233 -0.03202354 0.26213995 -0.0999426 -0.28468856
-0.05161703 -0.23612969 -0.71194154 -0.61332816 0.7874944 0.25738662 -0.58352107 0.089941196
0.22718121 0.088668026 -0.43399656 -0.45814905 0.23421614 -0.12168947 0.07756877 0.060358237
-0.06677074 -0.061843798 -0.13156247 -0.14981577 -0.0022128536 0.06114719 -0.16814 -0.048781462
-0.0004994032 -0.1692081 -0.23432067 -0.26885065 -0.33157173 -0.31018493 -0.16788644 -0.17758282
-0.14806937 0.002455922 -0.113447174 0.05989221 -0.00038062106 -0.058076702 -0.048943497 -0.15323092
-0.17963745 -0.07730253 -0.036851715 -0.4771336 -0.28217843 0.40091407 -0.2949622 -0.09581039
0.20795883 0.31178302 0.19369453 0.5802041 -0.07687931 -0.008912483 -0.16294858 0.12951235
00000000: 7d19 50be 9e42 9f3d 76cd 94bd d159 333d
00000010: b407 6b3e a156 7c3d b393 3c3e 8043 0b3e
00000020: 2734 41bd 20cc 8a3d f4aa 433e 3de9 513d
00000030: b593 1fbd 9d35 cb3a 203a 49bd 4003 6f3c
00000040: fe87 05be fa4f b8be a530 9fbe 65f1 b0be
00000050: 5b44 f5bc b88d 7c3d d749 bb3d 778c 803e
00000060: ec83 b9bd d101 17bd 85f1 243e 7f1f 433f
00000070: 8657 053f 0e76 67be 7676 c93e ff8b a63e
00000080: a962 9cbe 11c8 c5bd 0679 e9bd a83a 0ebf
00000090: 3ffd e7be 2a42 503c ab82 893d 24d8 43be
000000a0: 3dea d8be 751f 97be 06e2 8abd db56 d53d
000000b0: ed73 25bc 8b27 913d 8ca3 1f3d 70ad 663d
000000c0: 1fe1 cebb 43c8 1abe 0a23 1bbe cbae 04be
000000d0: 057e 9e3c 3414 92bd 1a80 5a3c 56a6 8ebe
000000e0: b246 153e 1456 95be c61d 1fbd c7c5 033f
000000f0: 121e 9cbe 7431 3f3e aebc 903e 8b48 a83d
00000100: d1a3 053c 00ff 15be fae9 34be ee8b dabd
00000110: 9b22 3d3c 10e6 37be 6a83 0b3e f0c8 673e
00000120: 4e0c 523e 2953 183e 555e b93e 8c9d e43d
00000130: 056d 953e 4b12 af3e 18ab 9abd 6450 91bc
00000140: 9c88 8fbd b906 2abe a0f2 5b3e 31a1 6a3d
00000150: ad4c 653e 4308 083f 47d6 043f eda3 debd
00000160: 3527 873d f032 013e 8209 e4bc f744 94be
00000170: 6833 19bd b321 a4be f8df d4be 5cb7 e1be
00000180: fb5f 7b3d d5ba 8dbc 66b1 fcbd c3ef 28be
00000190: d291 f5bb 512f 89be 89dc eebe 00ad 94be
000001a0: 7c4c b6be 60e9 dabc 10b4 de3e 4dfd ff3e
000001b0: 3ea9 8abe bdb3 aabc fabc 34bd db74 3ebe
000001c0: 0555 bd3d 2a6e aabd 1fd9 b2bd 9328 10be
000001d0: 2fe7 2ebe 51a7 303e 5bf4 ebbd 3bdf 2f3d
000001e0: 75f5 71bb c8ea ebbd a047 b33d 6efd 403e
000001f0: fe8e 16bd 6c49 043e 11ac 523d 3c56 f1bd
00000200: ebd3 9eba 0565 733d cc34 6abe a444 913e
00000210: aa0c a63d 09d0 483d f893 d93d 3fa0 eb3c
00000220: 201e 013d 65c2 523d 2b1f 4ebe ed07 2dbe
00000230: 4da4 1dbd 9ae3 dabd e67b 143e f5e0 ad3c
00000240: 19ac a8be 4404 42be d62f 1cbe 4bc2 1cbe
00000250: 871f 033e af62 0c3e bf65 14bc 0102 9f3e
00000260: 0eb2 873e f73b 8b3e e4ab 4cbe a93d c3bd
00000270: bd6a 98bb 4bd5 babe 4d10 c93d 0031 1e3e
00000280: 5f54 78be 0676 e63d f97e b7bc 13a0 17bd
00000290: 4a91 d0bd 088f 1e3e b7ad 70bc 6597 e23c
000002a0: 452b 7d3d 2abb ecbb 75c5 3fbe 1518 30be
000002b0: 441f bebe d369 1e3e 5a85 53be 051b 5bbe
000002c0: dbeb b53e a72e 883c 761b f4bd 214e a53e
000002d0: ffd1 68bf 28fd 9d3e ad8d a1be 88e8 73bd
000002e0: 6c9f 01be a6d5 4e3e dec6 a5be 13b5 8bbe
000002f0: 50f7 a5bd 69b1 373e 6906 403e 3bc6 323e
00000300: aa02 34bd c564 c9be 2831 0d3d a2ad 173e
00000310: 1e2b 03bd 3537 863e b5ae ccbd b3c2 91be
00000320: 616c 53bd fbcb 71be cd41 36bf 1303 1dbf
00000330: 3c99 493f 2ec8 833e a361 15bf 1733 b83d
00000340: 31a2 683e 9597 b53d cc34 debe 8392 eabe
00000350: 5bd6 6f3e 5438 f9bd 60dc 9e3d 333a 773d
00000360: 19bf 88bd ec4f 7dbd 50b8 06be 4e69 19be
00000370: 8605 11bb 7a75 7a3d e42c 2cbe 12cf 47bd
00000380: 62ea 02ba e344 2dbe c2f1 6fbe cba6 89be
00000390: c5c3 a9be 8fd0 9ebe 6cea 2bbe 45d8 35be
000003a0: 7f9f 17be 89f3 203b fe56 e8bd 8951 753d
000003b0: 188e c7b9 d6e1 6dbd fa78 48bd 91e8 1cbe
000003c0: e1f2 37be ca50 9ebd d3f1 16bd db4a f4be
000003d0: b179 90be 9c44 cd3e 4905 97be 3d38 c4bd
000003e0: 29f3 543e 06a2 9f3e dc57 463e 4288 143f
000003f0: e672 9dbd aa05 12bc fedb 26be e39e 043e

net._orig_mod.FConv.bias f4 [128]
0.058759153 -0.05255118 -0.23124126 -0.00779178 -0.11636838 0.02368588 -0.22040936 -0.119751945
0.22319408 0.03143751 -0.16719852 -0.17034419 0.3400275 0.10101362 -0.13497391 0.11155543
-0.19268893 -0.13672349 -0.17146955 0.023129553 0.12614201 0.17628337 -0.08807513 -0.012045118
-0.1808145 -0.093418136 -0.10169261 -0.18660276 -0.20666699 0.06345098 0.2631233 0.019890541
-0.04105354 0.05499819 -0.008191573 -0.23582207 0.13755898 -0.1811237 -0.09098221 -0.025916308
0.017658038 -0.23610662 -0.04337731 -0.00546481 0.02648444 0.088943705 -0.27834374 -0.014333794
-0.015080774 -0.091264926 -0.15827821 -0.06978214 -0.1722303 0.027125759 0.19426805 0.069014594
0.18400522 0.25515598 0.004256813 -0.106464416 0.07450759 -0.18802193 0.11306541 -0.17394423
-0.16511159 0.069629915 0.08890976 0.12456365 -0.09764627 0.20707436 0.07208077 0.027596049
0.27120522 -0.0135385385 -0.08273595 -0.20766231 0.05499215 -0.22667487 -0.24900141 0.120388165
0.1929584 0.11289737 0.021275992 0.04299484 0.10906857 0.009164206 0.096931286 -0.12831385
0.1509246 -0.0029592973 0.106413715 0.1570275 -0.115553565 0.022441616 -0.0805923 -0.084470324
0.100336224 -0.132027 -0.043161053 0.099842094 0.059982568 -0.11215816 -0.06499665 0.3062824
0.017080083 0.13035262 0.15831614 0.0787712 -0.043489646 -0.13884945 -0.09993358 0.076186985
0.14198093 0.25676316 -0.24297407 0.34338498 0.1816086 -0.1927809 0.05246745 0.24944396
-0.16106358 -0.060722835 0.051332828 -0.25319946 0.039233536 0.25545913 0.2930713 -0.14901657
00000000: 70ad 703d e83f 57bd 82ca 6cbe 3052 ffbb
00000010: 8c52 eebd e408 c23c feb2 61be 8240 f5bd
00000020: fd8c 643e 9ec4 003d 1736 2bbe b56e 2ebe
00000030: 1618 ae3e 3be0 ce3d 9a36 0abe 2c77 e43d
00000040: 3f50 45be 3e01 0cbe b795 2fbe 307a bd3c
00000050: 5f2b 013e a183 343e bc60 b4bd e358 45bc
00000060: 7027 39be 0252 bfbd 3744 d0bd cb14 3fbe
00000070: 83a0 53be 96f2 813d 19b8 863e 7df1 a23c
00000080: c227 28bd c845 613d f335 06bc 577b 71be
00000090: 43dc 0c3e 7e78 39be e254 babd 704e d4bc
000000a0: 97a7 903c efc5 71be 68ac 31bd 2612 b3bb
000000b0: e5f5 d83c 1e28 b63d 1283 8ebe 4ad8 6abc
000000c0: 5a15 77bc 1be9 babd af13 22be f0e9 8ebd
000000d0: 245d 30be d736 de3c 34ee 463e 8657 8d3d
000000e0: dd6b 3c3e cea3 823e bc7c 8b3b 040a dabd
000000f0: 6f97 983d d288 40be d68e e73d 701e 32be
00000100: 0313 29be 219a 8e3d 5216 b63d 3a1b ff3d
00000110: c5fa c7bd 4d0b 543e 159f 933d 1c11 e23c
00000120: 69db 8a3e bfd0 5dbc 7771 a9bd 6ea5 54be
00000130: 733f 613d 751d 68be 3afa 7ebe 128e f63d
00000140: e396 453e bc36 e73d fd4a ae3c 5b1b 303d
00000150: 585f df3d 7725 163c e983 c63d b564 03be
00000160: fa8b 1a3e c5f0 41bb 6fef d93d d1cb 203e
00000170: 59a7 ecbd 7bd7 b73c 930d a5bd c7fe acbd
00000180: 147d cd3d 1632 07be a5c9 30bd 037a cc3d
00000190: 48b0 753d 2db3 e5bd f71c 85bd 0cd1 9c3e
000001a0: 88eb 8b3c 287b 053e a01d 223e cb52 a13d
000001b0: 3322 32bd 8d2e 0ebe faa9 ccbd ec07 9c3d
000001c0: 7363 113e 7676 833e 32ce 78be 28d0 af3e
000001d0: 9bf7 393e 5b68 45be 1ce8 563d 3d6e 7f3e
000001e0: daed 24be 82b8 78bd 5f42 523d 5ca3 81be
000001f0: 58b3 203d 8acb 823e 710d 963e cd97 18be

net._orig_mod.GPConv.DSBlock0.Conv.weight f4 [4, 1, 3, 3]
-0.30033213 -0.7537903 -0.6189785 0.446478 0.5461264 0.05519826 0.037009265 0.4345971
0.20510787 0.3379964 -0.06352736 0.3696462 0.32605895 0.13124007 0.05335018 0.44274068
0.030845206 -0.118698046 -0.0104339365 0.033065047 0.2638718 0.24971388 0.239603 0.320882
0.21963482 -0.17696846 -0.17046942 0.13871624 -0.116076976 -0.53109753 0.10480559 0.32560328
-0.78745556 0.17754246 0.34992808 -0.03943606
00000000: 22c5 99be 67f8 40bf 6075 1ebf c498 e43e
00000010: f1ce 0b3f 9217 623d 0797 173d 8383 de3e
00000020: cc07 523e dd0d ad3e a21a 82bd 4442 bd3e
00000030: 33f1 a63e cc63 063e b885 5a3d e8ae e23e
00000040: 16af fc3c f617 f3bd 1af3 2abc 376f 073d
00000050: 341a 873e ffb4 7f3e 7d5a 753e a54a a43e
00000060: f3e7 603e 3837 35be 898f 2ebe a10b 0e3e
00000070: c4b9 edbd 02f6 07bf 50a4 d63d 79b5 a63e
00000080: b096 49bf b1cd 353e c629 b33e b587 21bd

net._orig_mod.GPConv.DSBlock0.Conv.bias f4 [4]
-0.12917292 -0.34944034 -0.27288955 -0.0048358543
00000000: e845 04be d8e9 b2be 2eb8 8bbe 1676 9ebb

net._orig_mod.GPConv.DSBlock1.Conv.weight f4 [4, 4, 3, 3]
0.3974891 0.31579342 0.31313428 -0.077294454 -0.038959533 0.093470834 -0.43789038 0.02318762
-0.10192178 -0.20308125 -0.18645887 -0.08432704 -0.23482496 -0.5931485 0.10912974 -0.1892268
-0.5522235 0.1265425 0.14459899 -0.30473146 -0.19495048 0.3135977 -0.4201203 -0.028026653
-0.16126494 -0.14456175 0.07878355 0.4327635 0.31061813 -0.22132161 0.16455677 0.48631844
0.08439885 -0.019090977 0.17287691 -0.07877775 0.48267448 -0.17173943 -0.09207895 0.10010263
-0.559922 -0.2578915 -0.39446798 -0.32864696 0.040402066 0.32957467 -0.24330549 -0.49788436
-0.10265337 -0.13084663 0.012668617 -0.13158536 -0.3756951 -0.065548025 0.1440336 -0.30658555
-0.07901702 0.052492093 -0.07068244 0.0842357 -0.011486611 0.28183615 -0.0004435822 -0.08021037
-0.1032494 -0.13677892 -0.2882117 -0.09680448 -0.12802912 -0.14710416 -0.32162693 0.20963918
-0.23643301 -0.3876713 0.04027586 0.29026836 0.23733154 0.22694708 -0.47245014 -0.63372433
0.11256276 0.19645372 -0.37269107 -0.18900543 -0.44746774 -0.122636385 -0.003993112 -0.11518759
0.068394 0.068073526 0.37740326 -0.020403925 0.01760017 0.10529165 0.07208495 -0.043238662
0.012442378 0.32128865 0.22537927 0.37467757 -0.033180542 -0.5079831 -0.38926607 0.13770868
0.38399935 -0.0052602175 -0.030813241 -0.09263538 0.8119373 -0.68155426 0.46020713 0.02266373
0.4224499 0.4139845 0.1013794 0.4702405 -0.39914507 -0.25279135 -0.16485745 0.34637153
0.12271564 -0.19317299 -0.27367958 -0.042594384 0.063847266 -0.080028184 -0.37879983 0.09536303
0.17834339 -0.16710268 -0.19340324 0.12633547 0.010715755 -0.2958486 0.05343012 0.22700393
-0.39234993 0.39896962 -0.23456788 0.4415366 -0.036558248 0.317 0.6469461 -0.06506445
00000000: b183 cb3e adaf a13e 2353 a03e 8e4c 9ebd
00000010: 0894 1fbd a36d bf3d 2b33 e0be f7f3 bd3c
00000020: 5ebc d0bd 88f4 4fbe 13ef 3ebe a8b3 acbd
00000030: f475 70be 95d8 17bf 6a7f df3d acc4 41be
00000040: 855e 0dbf 5b94 013e c211 143e c305 9cbe
00000050: 19a1 47be e18f a03e 021a d7be 2798 e5bc
00000060: a322 25be ff07 14be 4559 a13d 2d93 dd3e
00000070: 5709 9f3e 22a2 62be 9281 283e bbfe f83e
00000080: 4ed9 ac3d ae64 9cbc a506 313e 3b56 a1bd
00000090: 1c21 f73e 76dc 2fbe e393 bcbd 9c02 cd3d
000000a0: 0c57 0fbf 5b0a 84be b5f7 c9be 6a44 a8be
000000b0: a37c 253d 03be a83e 1325 79be b3ea febe
000000c0: ee3b d2bd a9fc 05be 0890 4f3c 50be 06be
000000d0: 1c5b c0be 0b3e 86bd 8b7d 133e c8f8 9cbe
000000e0: add3 a1bd f301 573d f5c1 90bd c483 ac3d
000000f0: 5732 3cbc d44c 903e 9890 e8b9 5645 a4bd
00000100: 6c74 d3bd c60f 0cbe 7c90 93be 6d41 c6bd
00000110: 111a 03be 79a2 16be 49ac a4be a7ab 563e
00000120: 7f1b 72be da7c c6be 4df8 243d 0e9e 943e
00000130: 0a07 733e d164 683e fce4 f1be c23b 22bf
00000140: 4e87 e63d 2a2b 493e 5dd1 bebe a48a 41be
00000150: 7e1a e5be c928 fbbd a7d8 82bb 79e7 ebbd
00000160: 2712 8c3d 226a 8b3d 003b c13e 2226 a7bc
00000170: 3b2e 903c 26a3 d73d 46a1 933d 061b 31bd
00000180: 1edb 4b3c f27f a43e d3c9 663e bdd5 bf3e
00000190: 52e8 07bd 2e0b 02bf e24d c7be 8103 0d3e
000001a0: 909b c43e e75d acbb 0d6c fcbc 9eb7 bdbd
000001b0: 1fdb 4f3f 577a 2ebf 45a0 eb3e 49a9 b93c
000001c0: 5a4b d83e c7f5 d33e 01a0 cf3d 5dc3 f03e
000001d0: be5c ccbe de6d 81be 64d0 28be 9c57 b13e
000001e0: 5652 fb3d 24cf 45be bb1f 8cbe 7377 2ebd
000001f0: 5bc2 823d d1e5 a3bd 0df2 c1be b14d c33d
00000200: a69f 363e f71c 2bbe 800b 46be 165e 013e
00000210: 2291 2f3c 7879 97be 8bd9 5a3d b873 683e
00000220: 17e2 c8be bf45 cc3e 9032 70be 1611 e23e
00000230: 1abe 15bd d34d a23e 429e 253f 8340 85bd

net._orig_mod.GPConv.DSBlock1.Conv.bias f4 [4]
-0.0842082 0.2037271 -0.13760617 0.12645306
00000000: 5975 acbd d69d 503e a2e8 0cbe e97c 013e

net._orig_mod.GPConv.DSBlock2.Conv.weight f4 [4, 4, 3, 3]
-0.26205838 0.1598712 -0.23909646 0.23508641 0.1241435 -0.106431276 -0.10774714 -0.23616967
0.13723281 -0.2746795 -0.24458575 -0.1939639 -0.07798837 -0.08551361 0.2722536 -0.17576241
0.08231084 0.25040397 -0.4454286 0.028548976 -0.004161748 -0.15986606 -0.14898212 -0.14086959
-0.101508565 0.07155734 -0.15601006 -0.45638543 -0.3865812 -0.2843185 -0.23209271 -0.10979416
-0.058878485 -0.274471 0.047249433 -0.26102656 -0.13800146 -0.22699435 -0.251612 -0.06567666
-0.21289238 -0.19621868 -0.0711838 -0.20810398 -0.102852784 0.21117364 0.30922174 0.4389377
0.21049039 0.41021377 0.095026374 0.1425769 0.24074996 0.15698166 0.21602324 0.056836106
-0.25883055 -0.07767228 -0.11077352 -0.1793978 -0.044596393 0.08475621 0.100455455 0.21661143
0.20157625 0.31145158 0.3813706 0.20398466 0.3834818 0.07327698 0.20731449 0.3681136
0.33668685 0.19814026 0.2598698 0.05115287 -0.13615361 0.3740858 0.25631556 0.09962834
0.30757695 0.09613285 0.28812242 0.14767705 0.36553252 -0.020629916 -0.04514412 0.114344515
0.048485458 0.12930511 -0.19794668 -0.1393906 0.3299581 -0.15333301 -0.1796121 0.102633655
0.009606189 0.21812575 -0.32592252 -0.016219174 0.20991032 0.1906989 -0.1297271 -0.082508355
-0.060161024 -0.1029296 -0.34327564 -0.22466612 -0.27541205 -0.11950996 -0.20665951 0.32956424
-0.1025183 0.23737532 -0.086355045 0.026631083 -0.10443397 -0.3710927 -0.038622145 -0.10078962
-0.19152282 0.34604242 -0.20137821 -0.24906947 0.124896586 0.200507 -0.523853 0.46565497
-0.026408028 0.018126324 -0.11315718 -0.36411506 -0.049085047 0.043673534 0.50454277 -0.02243259
0.14656785 -0.18174642 0.094988406 0.019416606 0.22597466 -0.1407018 0.21888922 0.19630511
00000000: 842c 86be 47b5 233e b4d5 74be 7eba 703e
00000010: f33e fe3d a4f8 d9bd 88aa dcbd 76d6 71be
00000020: c286 0c3e cba2 8cbe b074 7abe 799e 46be
00000030: 5eb8 9fbd c221 afbd d364 8b3e 10fb 33be
00000040: 9692 a83d f334 803e 380f e4be 8bdf e93c
00000050: 465f 88bb eeb3 23be c58e 18be 1e40 10be
00000060: b9e3 cfbd a88c 923d 1ac1 1fbe 5aab e9be
00000070: f9ed c5be 3292 91be b6a9 6dbe c3db e0bd
00000080: 912a 71bd 7787 8cbe 9f88 413d 46a5 85be
00000090: 4150 0dbe 3571 68be 4ad3 80be 7c81 86bd
000000a0: 7600 5abe 8ded 48be d0c8 91bd 3619 55be
000000b0: 7ba4 d2bd e73d 583e 5052 9e3e 71bc e03e
000000c0: cb8a 573e 8a07 d23e 309d c23d aeff 113e
000000d0: 2887 763e cdbf 203e 3235 5d3e facc 683d
000000e0: 7085 84be a512 9fbd 3add e2bd 0fb4 37be
000000f0: b5aa 36bd aa94 ad3d 97bb cd3d 63cf 5d3e
00000100: 016a 4e3e 9576 9f3e 0243 c33e 5be1 503e
00000110: ba57 c43e 3e12 963d 404a 543e 6379 bc3e
00000120: 3862 ac3e 48e5 4a3e a80d 853e ac85 513d
00000130: da6b 0bbe 2d88 bf3e cb3b 833e f109 cc3d
00000140: ba7a 9d3e 4de1 c43d c884 933e a738 173e
00000150: 1427 bb3e 1200 a9bc 0ae9 38bd 752d ea3d
00000160: b098 463d 8f68 043e 89b2 4abe 69bc 0ebe
00000170: 45f0 a83e 5403 1dbe 3cec 37be 9831 d23d
00000180: 4763 1d3c 5b5c 5f3e 51df a6be 13de 84bc
00000190: bbf2 563e 9346 433e 2ed7 04be 24fa a8bd
000001a0: 686b 76bd c1cc d2bd d3c1 afbe e00e 66be
000001b0: cf02 8dbe a3c1 f4bd 8d9e 53be a5bc a83e
000001c0: 1df5 d1bd 8412 733e eada b0bd 6e29 da3c
000001d0: 7ae1 d5bd ddff bdbe 4132 1ebd ca6a cebd
000001e0: 8f1e 44be 792c b13e 1736 4ebe 110c 7fbe
000001f0: c8c9 ff3d b551 4d3e 3b1b 06bf 546a ee3e
00000200: a655 d8bc a87d 943c f4be e7bd 4a6d babe
00000210: 670d 49bd 05e3 323d b729 013f 8dc4 b7bc
00000220: e215 163e bc1b 3abe 4889 c23d 930f 9f3c
00000230: e765 673e 2214 10be 7f24 603e 3504 493e

net._orig_mod.GPConv.DSBlock2.Conv.bias f4 [4]
0.71371055 0.64970875 -0.15181431 -0.3845303
00000000: bcb5 363f 5053 263f 3675 1bbe 28e1 c4be

net._orig_mod.GMConv.DSBlock0.Conv.weight f4 [4, 4, 3, 3]
0.35256198 -0.3107245 -0.3061167 0.37604025 -0.006946711 0.04950746 0.36118838 0.25299928
0.2416713 0.1716631 -0.36897355 -0.22252461 0.24443612 -0.11739376 0.094607934 0.20587443
0.14411888 0.16251984 -0.09067436 -0.6411601 -0.5024718 -0.11079662 -0.56829005 -0.22123432
-0.01773955 -0.29869568 -0.1939076 0.25598213 -0.09070502 0.015492507 0.08793756 -0.18393295
-0.10893818 0.13590498 -0.13193029 -0.180738 0.01854153 -0.17647447 -0.08542668 0.07355895
0.09787929 -0.0906907 -0.20453364 0.21623673 -0.13489524 0.09267798 -0.016683955 -0.122514226
0.17644954 0.06367769 -0.24224381 0.078187965 0.151717 -0.2603162 0.18490888 0.19618642
0.054385964 0.49755296 0.26355857 -0.07685299 0.31929573 0.50194615 0.11231345 -0.10438021
-0.27255082 -0.11268373 -0.27773616 0.13003366 0.25506207 -0.34716025 -0.35214406 0.015061698
0.2047263 0.07901991 0.021215923 0.24738348 0.21061225 -0.23039617 0.0846755 0.016877497
-0.041005008 0.21998745 0.09201808 0.4553769 -0.052120224 0.08951955 0.10573773 0.32181603
0.32944706 0.17858106 -0.41548187 -0.25578597 -0.38996357 -0.481336 -0.24937181 -0.227466
-0.10735981 -0.055198886 -0.35327974 -0.10694854 0.13840732 0.30453464 -0.3258396 0.056808952
0.38310573 -0.099563755 0.30440927 0.39732447 -0.053978715 -0.14367135 -0.22008003 0.07334354
-0.13091207 -0.06128756 0.052127562 0.23744655 -0.12833625 -0.5070833 -0.49430522 -0.22521459
-0.24606818 -0.34288543 -0.18632384 -0.07207286 -0.017551044 -0.35638827 -0.17819111 -0.4109329
0.0052748076 0.066882245 0.10888379 -0.12358899 0.43774214 0.41833928 -0.19208764 0.35340282
0.36987233 0.02430473 0.24302365 0.30666482 0.19373447 -0.29699665 -0.2588752 0.02716087
00000000: 0183 b43e 4817 9fbe 54bb 9cbe 5988 c03e
00000010: 3ca1 e3bb 56c8 4a3d afed b83e 1f89 813e
00000020: ae78 773e 74c8 2f3e 1aea bcbe 7edd 63be
00000030: 764d 7a3e 246c f0bd cec1 c13d bfd0 523e
00000040: e693 133e 9a6b 263e 7bb3 b9bd 1123 24bf
00000050: fea1 00bf 57e9 e2bd 757b 11bf 408b 62be
00000060: 8852 91bc a4ee 98be b78f 46be 1710 833e
00000070: 8ec3 b9bd 49d4 7d3c 9c18 b43d eb58 3cbe
00000080: fb1a dfbd ad2a 0b3e bc18 07be 6213 39be
00000090: 68e4 973c b9b5 34be 2ff4 aebd 13a6 963d
000000a0: f074 c83d 0cbc b9bd 4471 51be 296d 5d3e
000000b0: fa21 0abe f4cd bd3d caac 88bc bde8 fabd
000000c0: 30af 343e 7369 823d c30e 78be 0321 a03d
000000d0: b45b 1b3e 2a48 85be c158 3d3e 18e5 483e
000000e0: d1c3 5e3d 43bf fe3e 26f1 863e 1a65 9dbd
000000f0: bb7a a33e 8b7f 003f 9804 e63d 4bc5 d5bd
00000100: c88b 8bbe bac6 e6bd 6f33 8ebe 8b27 053e
00000110: 7f97 823e fdbe b1be 3a4c b4be 57c5 763c
00000120: c5a3 513e 31d5 a13d 04cd ad3c 1852 7d3e
00000130: bdaa 573e f9ec 6bbe 596a ad3d ad42 8a3c
00000140: def4 27bd 6444 613e fa73 bc3d 2927 e93e
00000150: 047c 55bd 0756 b73d 068d d83d 12c5 a43e
00000160: 49ad a83e f4dd 363e 0aba d4be 61f6 82be
00000170: 4ea9 c7be ac71 f6be 535b 7fbe d9ec 68be
00000180: 76df dbbd 3a18 62bd 15e1 b4be d607 dbbd
00000190: a6ba 0d3e f7eb 9b3e 73d4 a6be 81b0 683d
000001a0: 6f26 c43e 15e8 cbbd 88db 9b3e 1d6e cb3e
000001b0: c918 5dbd 951e 13be a95c 61be 2335 963d
000001c0: d00d 06be aa08 7bbd b683 553d 3025 733e
000001d0: 946a 03be 36d0 01bf 9315 fdbe a79e 66be
000001e0: 4cf9 7bbe ae8e afbe adcb 3ebe f09a 93bd
000001f0: 35c7 8fbc 8678 b6be bb77 36be cc65 d2be
00000200: 4bd8 ac3b 8ff9 883d 77fe de3d 391c fdbd
00000210: bd1f e03e 9130 d63e 9fb2 44be 37f1 b43e
00000220: e85f bd3e b71a c73c 31db 783e 2c03 9d3e
00000230: 5462 463e f20f 98be 4a8b 84be 7980 de3c

net._orig_mod.GMConv.DSBlock0.Conv.bias f4 [4]
0.13029215 -0.08742868 -0.3532439 0.113981746
00000000: 4e6b 053e cf0d b3bd 62dc b4be 436f e93d

net._orig_mod.GMConv.DSBlock1.Conv.weight f4 [4, 4, 3, 3]
0.43155044 -0.0867493 -0.46117932 0.5759092 0.3519704 0.08437552 0.3649652 0.02472854
-0.05020395 -0.16157234 -0.2945684 0.01228903 -0.4259871 -0.3842672 -0.2682593 -0.023363579
0.061028834 0.06760251 0.3260727 -0.358253 0.021646373 -0.11544475 0.3950753 0.64901716
-0.6343236 0.21137714 0.72010946 -0.19242753 -0.14294907 -0.10440882 -0.016113823 -0.15962458
-0.6040073 -0.01437311 -0.394664 -0.26027793 -0.14551586 0.086067565 0.09973414 -0.0031802214
0.07587347 0.053935193 0.26297113 -0.0005945757 -0.12721783 0.14757296 -0.01824454 0.12819481
-0.32602507 -0.03482969 0.1657461 0.15537505 0.020663192 -0.09565069 0.097934246 0.13003923
0.2566372 0.017823154 -0.065069795 -0.14084154 -0.254099 -0.05984843 0.13801348 0.71780956
0.40398973 0.1547793 0.7853326 0.008225783 -0.29052472 -0.5902991 0.19803566 0.3845892
-0.073981024 -0.060955014 0.0858667 0.13748464 -0.43403596 -0.23644786 0.2817829 -0.167033
-0.11069048 -0.33914185 -0.21811947 -0.1767472 -0.22119136 -0.42728156 -0.18783273 -0.05053973
-0.14016965 -0.0433848 -0.51547647 -0.5539257 -0.42770144 -0.7748287 -0.32892916 -0.12161273
-0.38517353 -0.28505257 -0.15484701 -0.02143745 -0.2849667 0.20289493 -0.3189085 0.024953505
0.14594471 -0.2628809 0.09272028 0.11700829 -0.041101985 0.44501436 0.112035304 0.108948134
-0.2030308 0.11475629 0.93321854 0.34333345 -0.10880243 0.05719904 0.019352142 0.037119307
0.04830792 0.10800236 0.04585102 -0.062587634 0.20060377 -0.0977581 -0.22100021 0.052840568
-0.045601655 0.3401057 -0.10211735 -0.16922735 0.31396 0.1281841 -0.44314983 -0.0036921834
-0.099400766 -0.34819618 0.21097489 0.04719122 -0.15810177 0.76756746 0.06372443 -0.055029344
00000000: 2ef4 dc3e 9ea9 b1bd b21f ecbe c96e 133f
00000010: 7735 b43e 13cd ac3d b8dc ba3e 8293 ca3c
00000020: a8a2 4dbd 3873 25be abd1 96be ed57 493c
00000030: fb1a dabe acbe c4be 4859 89be fa64 bfbc
00000040: 5ff9 793d 2f73 8a3d 00f3 a63e f06c b7be
00000050: bc53 b13c 4c6e ecbd 4f47 ca3e fd25 263f
00000060: 0863 22bf 4073 583e 1859 383f b90b 45be
00000070: 3e61 12be 4bd4 d5bd 2301 84bc a074 23be
00000080: 39a0 1abf 317d 6bbc 6611 cabe 2643 85be
00000090: 1c02 15be 3144 b03d 6a41 cc3d 436b 50bb
000000a0: 8d63 9b3d 26eb 5c3d 27a4 863e 4ddd 1bba
000000b0: 6445 02be 5e1d 173e 9375 95bc 8045 033e
000000c0: c2ec a6be 94a9 0ebd 58b9 293e a31a 1f3e
000000d0: db45 a93c 82e4 c3bd c091 c83d 0129 053e
000000e0: f365 833e dd01 923c 5043 85bd c438 10be
000000f0: 4419 82be a123 75bd 6853 0d3e 5ec2 373f
00000100: bed7 ce3e 777e 1e3e 8f0b 493f 6fc5 063c
00000110: a8bf 94be d81d 17bf dcc9 4a3e e0e8 c43e
00000120: 5d83 97bd f7ab 79bd e1da af3d c6c8 0c3e
00000130: f639 debe 631f 72be d945 903e b30a 2bbe
00000140: b1b1 e2bd 00a4 adbe b65a 5fbe 38fd 34be
00000150: fd7f 62be a6c4 dabe 3957 40be bf02 4fbd
00000160: a288 0fbe 43b4 31bd 44f6 03bf 13ce 0dbf
00000170: affb dabe 2c5b 46bf 6769 a8be 1810 f9bd
00000180: 7735 c5be 69f2 91be 3790 1ebe 979d afbc
00000190: 28e7 91be b0c3 4f3e fa47 a3be 4b6b cc3c
000001a0: 8872 153e 5398 86be 21e4 bd3d 0ba2 ef3d
000001b0: 8e5a 28bd ecd8 e33e c472 e53d 3320 df3d
000001c0: 4ee7 4fbe 5905 eb3d 69e7 6e3f 67c9 af3e
000001d0: cfd3 debd 8a49 6a3d 6288 9e3c 6a0a 183d
000001e0: 87de 453d 5730 dd3d 47ce 3b3d f22d 80bd
000001f0: 136b 4d3e 6635 c8bd e14d 62be 5a6f 583d
00000200: cdc8 3abd 5622 ae3e e722 d1bd ef49 2dbe
00000210: 5dbf a03e b142 033e 89e4 e2be 8ff8 71bb
00000220: a192 cbbd c546 b2be cd09 583e 954b 413d
00000230: 6ee5 21be 4d7f 443f f481 823d 7366 61bd

net._orig_mod.GMConv.DSBlock1.Conv.bias f4 [4]
0.11269845 -0.10216321 0.091645434 -0.13216104
00000000: 72ce e63d f23a d1bd 9ab0 bb3d 3955 07be

net._orig_mod.GConv.weight f4 [128, 8, 3, 3]
-0.19118133 0.120481685 0.5618395 -0.025355952 0.1748695 0.38062525 0.07915098 0.0031058094
0.3066184 0.11902554 -0.0416677 -0.19094269 -0.069146216 -0.057092443 0.19963787 -0.003762173
-0.11839037 -0.16474418 0.2569189 0.2303624 -0.1875214 0.31696892 0.10863156 0.04798842
0.18658498 -0.2120375 0.2431466 0.20617087 -0.14893697 0.14611591 0.30063522 0.20394002
-0.09222932 0.38240942 0.049298353 -0.06331231 0.17626067 0.47500855 0.4011644 0.108715855
0.0003324384 -0.15267259 0.5229093 0.04945827 0.048834413 0.05370506 0.15603347 -0.14778987
-0.24366081 -0.16821851 -0.22764136 0.28088063 0.039393276 0.06834815 -0.49128413 -0.03794821
-0.21311192 -0.2027207 -0.21350375 0.15696418 -0.41998774 -0.03370816 0.0014579227 -0.23596296
-0.18403535 -0.07606415 -0.07154225 0.18157172 0.29293954 -0.11666761 -0.16261113 0.14031719
0.2636853 0.05672505 0.12427149 0.15421137 -0.024612458 0.25142652 0.56282526 0.08078102
0.39026666 -0.35876685 -0.008335354 0.3474032 -0.45528105 0.051466856 -0.60813403 -0.109195605
-0.32908204 -0.54005516 -0.07822094 -0.053359132 0.052653104 -0.13976005 -0.3353802 -0.23187989
0.14309873 -0.5643331 -0.11858002 0.05112681 0.31625226 -0.32878017 0.18772143 0.008646214
-0.13712269 -0.37127927 -0.4741606 -0.26799473 0.033339176 0.067678094 0.37613937 -0.011677843
0.019556433 0.08630415 0.328025 -0.0037518176 -0.076360784 -0.08410347 0.14862105 0.6747696
0.235358 0.017306821 0.24840544 0.32269257 0.04384889 -0.21812615 0.29337466 0.1904135
0.3020272 0.2067752 0.18371919 0.11508673 0.21064855 0.37688714 0.23550624 -0.11825553
-0.14783563 -0.1498003 0.09878483 -0.16797628 -0.29149237 -0.013360192 0.32298166 -0.06017401
-0.20872465 -0.06355638 -0.26069617 -0.05840189 -0.004549874 0.049399465 -0.7965618 -0.3201852
-0.114465915 0.016361715 -0.26289684 -0.01512177 0.32466897 -0.06826719 0.17060177 0.116649516
0.29986358 0.37186176 -0.12509336 0.0558333 -0.12612605 -0.05306287 0.264506 -0.34121108
0.37625232 0.36333573 -0.03835492 -0.22186342 0.020180514 0.07401635 0.021526685 0.11529235
0.039958548 -0.058344588 -0.140133 0.033445247 -0.06441709 -0.24426505 -0.39886934 0.1054936
0.13090967 0.2918577 -0.2312065 -0.11747959 0.023502782 -0.005033016 0.029058922 0.25477087
0.22521183 -0.044598147 0.18428026 -0.047082648 -0.05369062 0.12141398 0.07552247 -0.06513496
0.025620809 -0.098618545 -0.03792618 0.055355664 -0.92808384 -0.1046765 -0.3012708 0.09531815
-0.007631369 0.5079241 -0.06502965 0.042031147 -0.20226175 0.18723749 0.2821153 -0.39701962
0.41232798 0.0025435155 0.19421346 0.25033882 0.2631525 -0.07474829 -0.07507706 0.07358678
-0.030701438 -0.07842088 0.11192802 -0.046169546 -0.24150194 -0.2382467 -0.14245339 -0.19724761
0.022963488 0.5374919 -0.068531096 0.009498849 -0.59975266 0.18183906 -0.011963764 -0.46634856
0.24330242 -0.44861454 -0.7860999 0.004394061 0.030040925 -0.007037613 0.043693095 -0.031997826
-0.033532903 0.056117967 -0.13642289 0.3783735 -0.045499187 -0.2632021 -0.091856584 0.17942783
00000000: 0ac5 43be 1abf f63d b7d4 0f3f 49b7 cfbc
00000010: fd10 333e 50e1 c23e e919 a23d d68a 4b3b
00000020: 16fd 9c3e aac3 f33d c0ab 2abd 7b86 43be
00000030: 889c 8dbd c4d9 69bd df6d 4c3e ca8e 76bb
00000040: a676 f2bd b3b2 28be e08a 833e 1fe4 6b3e
00000050: 9c05 40be c049 a23e 397a de3d 818f 443d
00000060: 2210 3f3e 5c20 59be 6cfb 783e 751e 533e
00000070: ef82 18be 699f 153e dcec 993e a7d5 503e
00000080: bae2 bcbd 2bcb c33e 12ed 493d e2a9 81bd
00000090: ad7d 343e 5234 f33e 6c65 cd3e 6ba6 de3d
000000a0: 204b ae39 3456 1cbe 62dd 053f c194 4a3d
000000b0: 9806 483d d6f9 5b3d 3dc7 1f3e 3a56 17be
000000c0: 3882 79be 7941 2cbe d11a 69be 96cf 8f3e
000000d0: d85a 213d 1dfa 8b3d 9889 fbbe 956f 1bbd
000000e0: 033a 5abe 0496 4fbe baa0 5abe 38bb 203e
000000f0: a208 d7be 9111 0abd c517 bf3a 46a0 71be
00000100: c373 3cbe 85c7 9bbd be84 92bd f0ed 393e
00000110: 2cfc 953e 6eef eebd 8883 26be 4faf 0f3e
00000120: c201 873e 8758 683d 0d82 fe3d 96e9 1d3e
00000130: 11a0 c9bc faba 803e 5115 103f 8570 a53d
00000140: 08d1 c73e 4ab0 b7be 0291 08bc d5de b13e
00000150: 991a e9be e9ce 523d acae 1bbf f2a1 dfbd
00000160: 717d a8be 0e41 0abf 4d32 a0bd 1b8f 5abd
00000170: c8aa 573d 421d 0fbe f4b6 abbe ec71 6dbe
00000180: 7988 123e 2278 10bf 15da f2bd 596a 513d
00000190: d1eb a13e e055 a8be 0c3a 403e daa8 0d3c
000001a0: e469 0cbe 5118 bebe 2ec5 f2be 9b36 89be
000001b0: a98e 083d d09a 8a3d 5795 c03e 6c54 3fbc
000001c0: d034 a03c 3bc0 b03d e5f2 a73e 0ee1 75bb
000001d0: 0b63 9cbd 713e acbd 1e30 183e b3bd 2c3f
000001e0: b001 713e 09c7 8d3c ff5d 7e3e f637 a53e
000001f0: e59a 333d 765c 5fbe 3435 963e c2fb 423e
00000200: 4fa3 9a3e e1bc 533e e220 3c3e 97b2 eb3d
00000210: 41b4 573e 5af7 c03e 8c28 713e f52f f2bd
00000220: 3962 17be 4065 19be b34f ca3d f901 2cbe
00000230: 7d3e 95be b5e4 5abc da5d a53e 0679 76bd
00000240: eabb 55be d929 82bd f879 85be d236 6fbd
00000250: 1c17 95bb 1857 4a3d 79eb 4bbf 51ef a3be
00000260: 1b6d eabd 0109 863c 6a9a 86be 4dc1 77bc
00000270: 033b a63e abcf 8bbd 3bb2 2e3e f1e5 ee3d
00000280: b887 993e aa64 be3e 7918 00be 75b1 643d
00000290: 3027 01be 7458 59bd 556d 873e 38b3 aebe
000002a0: 25a4 c03e 2407 ba3e 0c1a 1dbd 2a30 63be
000002b0: 9b51 a53c e295 973d bb58 b03c 651e ec3d
000002c0: 93ab 233d bcfa 6ebd 067f 0fbe e2fd 083d
000002d0: 1bed 83bd 9e20 7abe 9a38 ccbe 070d d83d
000002e0: 2f0d 063e 5f6e 953e 66c1 6cbe 2499 f0bd
000002f0: e888 c03c 00ec a4bb fa0c ee3c 5471 823e
00000300: ee9d 663e 8cac 36bd f7b3 3c3e bcd9 40bd
00000310: b2ea 5bbd e5a7 f83d 86ab 9a3d 7a65 85bd
00000320: bbe2 d13c 85f8 c9bd 7b58 1bbd 9fbc 623d
00000330: e796 6dbf a260 d6bd 2b40 9abe 2a36 c33d
00000340: 9010 fabb 5007 023f 442e 85bd da28 2c3d
00000350: b41d 4fbe 2fbb 3f3e 6b71 903e 2846 cbbe
00000360: a71c d33e 1cb1 263b e5df 463e 692c 803e
00000370: edbb 863e a215 99bd 00c2 99bd aab4 963d
00000380: 9581 fbbc 209b a0bd 853a e53d 471c 3dbd
00000390: 494c 77be f1f6 73be 4ddf 11be 47fb 49be
000003a0: ed1d bc3c 1299 093f 085a 8cbd 0fa1 1b3c
000003b0: 6489 19bf 0534 3a3e aa03 44bc 3dc5 eebe
000003c0: 4524 793e ceb0 e5be d83d 49bf 0efc 8f3b
000003d0: 6318 f63c c79b e6bb 88f7 323d 2710 03bd
000003e0: cc59 09bd f4db 653d 71b2 0bbe 2cba c13e
000003f0: 5b5d 3abd 6dc2 86be 4e1f bcbd eebb 373e

net._orig_mod.GConv.bias f4 [128]
-0.030372526 -0.29602447 -0.14640114 0.118544504 -0.12178032 0.08150462 0.11701464 -0.0026421654
0.13234442 0.0071230344 -0.25935003 0.10140499 -0.25377724 0.19065021 0.26313433 -0.0062348032
0.13727792 -0.5787667 0.026808027 -0.0940049 0.31153387 -0.35097593 -0.039720826 -0.063981764
0.2432521 -0.48932457 -0.38642648 0.013788779 0.018331774 -0.11078588 -0.14682001 0.24385518
0.25562218 0.10049582 -0.07818322 -0.12128529 -0.25546393 -0.12200416 -0.12019627 0.0867438
0.16174497 0.3698089 -0.36215094 0.2531305 0.11180168 -0.06334569 0.1964268 0.008048744
-0.22819394 0.029965004 0.02484126 0.013524491 -0.0125905285 -0.012741994 -0.16641939 -0.23914035
0.06895908 0.05197749 -0.4273118 0.15401195 -0.019189574 -0.14781135 -0.26575541 -0.083187796
-0.13154636 -0.11136206 0.3508276 -0.15489434 0.09809073 0.25098032 -0.15126207 -0.36423054
-0.18854052 0.0065139607 0.19047746 0.18754938 -0.43366474 -0.14629175 -0.20410487 -0.11528451
0.14420201 -0.072225854 0.14165914 -0.4863483 -0.07910073 0.011478229 0.208821 -0.17454466
-0.20881663 -0.1134673 -0.23733157 -0.068944395 0.12331406 0.066362135 -0.16687828 0.01156929
0.13907091 -0.32176423 0.104847424 0.34341598 0.33881655 0.14884286 0.13144758 -0.06937282
0.1642346 -0.20621428 -0.35075355 -0.33856845 -0.08007161 -0.018666571 -0.11089178 0.15684119
0.16169116 0.21975715 -0.08645111 0.28000048 -0.23232222 -0.078917965 0.09942807 -0.08345305
-0.16517824 -0.124993995 0.13046734 -0.15699008 0.23818986 -0.11619924 0.32667553 0.028790046
00000000: cecf f8bc 8590 97be 2eea 15be 76c7 f23d
00000010: f667 f9bd e5eb a63d 5fa5 ef3d 2e28 2dbb
00000020: 4c85 073e 5868 e93b 87c9 84be 6bad cf3d
00000030: 17ef 81be cf39 433e 8bb9 863e 524d ccbb
00000040: 9592 0c3e 0e2a 14bf 829c db3c a485 c0bd
00000050: 5e81 9f3e 1eb3 b3be 4eb2 22bd df08 83bd
00000060: 1417 793e c088 fabe b1d9 c5be 55ea 613c
00000070: 842c 963c b5e3 e2bd fc57 16be 2cb5 793e
00000080: e9e0 823e c1d0 cd3d 861e a0bd 6c64 f8bd
00000090: 2bcc 82be 51dd f9bd 7629 f6bd bca6 b13d
000000a0: 79a0 253e 9857 bd3e d96b b9be 529a 813e
000000b0: 47f8 e43d 63bb 81bd 1b24 493e e1de 033c
000000c0: acab 69be 2b79 f53c e67f cb3c d495 5d3c
000000d0: 8148 4ebc ccc3 50bc d869 2abe 35e1 74be
000000e0: 6b3a 8d3d 59e6 543d 9dc8 dabe 4fb5 1d3e
000000f0: 7433 9dbc dc5b 17be 1811 88be 5d5e aabd
00000100: 17b4 06be cb11 e4bd ad9f b33e 9f9c 1ebe
00000110: cbe3 c83d 7e80 803e 72e4 1abe 6d7c babe
00000120: c410 41be 1073 d53b 860c 433e f20c 403e
00000130: 4e09 debe 81cd 15be de00 51be 491a ecbd
00000140: b1a9 133e 26eb 93bd 180f 113e a502 f9be
00000150: 90ff a1bd 2f0f 3c3c 2cd5 553e d6bb 32be
00000160: 07d4 55be 8b61 e8bd 0c07 73be b832 8dbd
00000170: 158c fc3d dfe8 873d 24e2 2abe 1f8d 3d3c
00000180: 9b68 0e3e 48be a4be 3fba d63d 38d4 af3e
00000190: 5d79 ad3e 436a 183e 329a 063e 5613 8ebd
000001a0: 1d2d 283e d629 53be f895 b3be d858 adbe
000001b0: 96fc a3bd a3ea 98bc 3b1b e3bd fa9a 203e
000001c0: 5e92 253e 0508 613e 480d b1bd 395c 8f3e
000001d0: e0e5 6dbe be9f a1bd f2a0 cb3d 6fe9 aabd
000001e0: 7c24 29be dafc ffbd 3b99 053e 02c2 20be
000001f0: 0be8 733e def9 edbd 0442 a73e 1ad9 eb3c

net._orig_mod.VPConv.DSBlock0.Conv.weight f4 [4, 1, 3, 3]
0.33225426 -0.33278757 0.023496583 -0.23840919 -0.2094968 -0.12336369 0.31152344 -0.16233312
0.21680076 0.32933074 -0.09290342 0.28138816 -0.05093711 -0.25292757 -0.12791167 -0.029705731
-0.14355043 0.05406559 0.23670314 0.15957204 -0.3054687 0.14795446 0.0143070165 0.12448602
0.23307113 -0.25655568 -0.13770302 0.11168841 0.01890814 -0.11243255 -0.16195929 0.009396126
-0.11675238 0.08700845 -0.18058315 0.2743974
00000000: 3b1d aa3e 2263 aabe e87b c03c 8a21 74be
00000010: 5486 56be 1aa6 fcbd 0080 9f3e a73a 26be
00000020: 0501 5e3e 0a9e a83e 2644 bebd 1c12 903e
00000030: 6ea3 50bd b97f 81be 47fb 02be 6f59 f3bc
00000040: e2fe 12be e173 5d3d 4f62 723e da66 233e
00000050: 6566 9cbe 6081 173e fa67 6a3c 87f2 fe3d
00000060: 33aa 6e3e 445b 83be 0502 0dbe e5bc e43d
00000070: 3ee5 9a3c 0943 e6bd a8d8 25be 35f2 193c
00000080: df1b efbd 7c31 b23d caea 38be d17d 8c3e

net._orig_mod.VPConv.DSBlock0.Conv.bias f4 [4]
0.021225128 -0.02308263 -0.13100864 0.35797998
00000000: 52e0 ad3c c917 bdbc 2127 06be 2749 b73e

net._orig_mod.VPConv.DSBlock1.Conv.weight f4 [4, 4, 3, 3]
0.24778461 -0.05397685 0.27953514 -0.30656016 0.061093222 -0.032149237 -0.31736657 0.06246556
-0.05862455 0.14965464 0.19518732 -0.1084586 0.3245711 0.24165031 -0.016933829 -0.095105946
-0.12626371 0.23052368 0.09951985 -0.06741068 0.04511775 -0.014639153 -0.15541653 -0.22626999
-0.2041705 0.18510872 0.017507367 0.12792857 0.04748002 0.08684742 0.08073176 -0.05032416
-0.16783816 0.0500124 -0.08615207 -0.13166597 -0.26480606 0.3086127 0.054208487 0.15762672
-0.28268558 0.33521324 0.08345105 0.07314089 -0.256916 -0.10705216 -0.08365752 -0.13871154
-0.24083754 0.041275762 -0.090653375 -0.1431922 -0.06550745 0.35069174 -0.16097192 0.03875041
0.12358101 -0.060969166 -0.058587413 0.004951673 -0.00028446005 0.18316115 -0.024690174 0.11354338
-0.15313055 0.071850926 0.028213307 -0.089217745 0.13148125 0.06009586 0.015399599 0.1443429
0.44895485 0.017759485 -0.02748846 -0.15677948 0.082354814 -0.15010357 -0.2668383 0.1471009
0.16851507 -0.061960086 -0.065906964 -0.18048769 0.13512972 -0.14018421 0.22791736 -0.39736083
0.21241477 0.13285133 0.010878062 0.043117426 0.051604055 -0.17043379 -0.08844436 -0.025936171
-0.0023072308 0.026676806 -0.0008089118 -0.376359 -0.3507102 -0.28432328 0.06664119 0.21584718
0.2582087 0.038854476 0.04715118 -0.07157619 -0.022126483 0.051668696 -0.052409083 -0.02243633
-0.1165738 0.14463447 0.01915666 -0.11732182 0.117070355 0.022152841 0.041063763 -0.0056676692
0.0067887893 0.0069164834 -0.06481777 -0.11713352 0.03268983 0.058273066 0.11275067 -0.14738968
0.09778934 0.08139391 0.11590746 -0.07181013 -0.092115 0.056359056 -0.15188047 0.16704975
0.050409596 0.14667295 0.14893359 -0.0029155135 -0.03125636 -0.011386119 -0.056590512 0.09073884
00000000: 40bb 7d3e d416 5dbd 3b1f 8f3e 74f5 9cbe
00000010: e33c 7a3d ebae 03bd df7d a2be e3db 7f3d
00000020: 4c20 70bd 113f 193e 2fdf 473e 8b1f debd
00000030: 2f2e a63e 2e73 773e d0b8 8abc e8c6 c2bd
00000040: 464b 01be 660e 6c3e 10d1 cb3d 9c0e 8abd
00000050: 64cd 383d 0fd9 6fbc 8325 1fbe 52b3 67be
00000060: 1212 51be 248d 3d3e 9c6b 8f3c b5ff 023e
00000070: 697a 423d 0fdd b13d b156 a53d b520 4ebd
00000080: c4dd 2bbe cdd9 4c3d 7f70 b0bd 72d3 06be
00000090: a994 87be 7c02 9e3e b809 5e3d e668 213e
000000a0: 2abc 90be 12a1 ab3e 62e8 aa3d e4ca 953d
000000b0: 7e8a 83be 2a3e dbbd a254 abbd 660a 0ebe
000000c0: 1e9e 76be c610 293d 7aa8 b9bd faa0 12be
000000d0: c528 86bd de8d b33e d3d5 24be c0b8 1e3d
000000e0: 0a18 fd3d ceba 79bd 5bf9 6fbd a541 a23b
000000f0: 9523 95b9 998e 3b3e 0c43 cabc 6e89 e83d
00000100: 41ce 1cbe 9426 933d 981f e73c cbb7 b6bd
00000110: 05a3 063e 1427 763d 9a4e 7c3c a0ce 133e
00000120: 69dd e53e 577c 913c 7b2f e1bc cd8a 20be
00000130: a4a9 a83d c0b4 19be 089f 88be 9ea1 163e
00000140: 378f 2c3e dcc9 7dbd 3bfa 86bd c4d1 38be
00000150: 725f 0a3e 738c 0fbe 2b63 693e e172 cbbe
00000160: 4283 593e 2e0a 083e e639 323c e69b 303d
00000170: c65e 533d 3286 2ebe 5122 b5bd 1878 d4bc
00000180: e934 17bb 5189 da3c 270d 54ba 20b2 c0be
00000190: 4a90 b3be d292 91be 2d7b 883d 0b07 5d3e
000001a0: ee33 843e df25 1f3d 9921 413d 8a96 92bd
000001b0: 9942 b5bc 8ea2 533d e8aa 56bd 65cc b7bc
000001c0: 3fbe eebd 0f1b 143e 6eee 9c3c 6c46 f0bd
000001d0: 95c2 ef3d e079 b53c 7a32 283d dbb7 b9bb
000001e0: 7e74 de3b aba3 e23b 2ebf 84bd b3e3 efbd
000001f0: c5e5 053d bdaf 6e3d d3e9 e63d 52ed 16be
00000200: c745 c83d dab1 a63d e460 ed3d 3011 93bd
00000210: caa6 bcbd c1d8 663d 8e86 1bbe 170f 2b3e
00000220: 4b7a 4e3d 6f31 163e 0c82 183e 3312 3fbb
00000230: ab06 00bd d88c 3abc 74cb 67bd 49d5 b93d

net._orig_mod.VPConv.DSBlock1.Conv.bias f4 [4]
-0.019142225 -0.13812172 0.13780895 0.27388072
00000000: 28d0 9cbc c86f 0dbe ca1d 0d3e 183a 8c3e

net._orig_mod.VPConv.DSBlock2.Conv.weight f4 [4, 4, 3, 3]
0.11556983 -0.008027807 0.13569246 -0.0676423 0.030474804 -0.06371827 -0.088766485 -0.2117907
-0.04957313 -0.10054639 0.020655753 -0.032941323 -0.052984584 -0.13682048 -0.033134803 0.093361914
0.02507998 -0.12763445 -0.10322617 0.025059495 0.019082436 0.0010342485 0.08969501 0.020069972
0.052379884 -0.028872617 -0.14306153 -0.090054676 0.18955053 -0.07823864 -0.05094367 -0.0005056822
-0.042774893 0.04332633 0.1344779 -0.0067054746 0.05113167 -0.039755527 -0.028741684 0.07681913
0.18824023 0.07450247 -0.049133293 -0.05672442 0.061861414 0.047415443 -0.17484044 -0.0782328
0.041872926 0.114571564 0.13979417 0.15090983 0.09354912 -0.020498414 -0.07880321 0.07476543
0.103603676 0.06827699 0.119102225 -0.04543633 0.043562517 -0.008389837 -0.13392153 -0.21789862
0.0072445446 -0.15842979 -0.24945435 -0.19914924 -0.15816851 -0.13575052 -0.08729675 -0.21548018
0.07787683 -0.04606363 0.059426256 -0.019211728 -0.083733276 -0.09243948 -0.035165567 -0.095826186
0.009119653 -0.08420608 0.28759167 -0.086026944 -0.11275627 0.061482772 -0.06551179 -0.13451006
-0.062155187 0.07598071 -0.020242035 -0.23578987 -0.18403202 0.07595558 0.22709742 0.07840295
-0.03586531 -0.09529247 0.01297229 -0.061163235 -0.18462582 -0.13117811 -0.08501383 0.12552
-0.0069004153 0.057686873 0.15750091 0.17371735 -0.029093103 0.06233983 0.13139008 -0.08835655
0.13913426 -0.32235557 -0.047382545 -0.13162714 0.15474075 -0.17748593 0.3080119 0.016456146
0.23165056 0.1333566 -0.3328007 -0.28030312 -0.18510552 0.16177957 -0.18322282 -0.058461733
-0.29990518 0.30074322 0.49392486 0.25355506 -0.18926552 -0.10107482 -0.28365394 -0.37543738
-0.08992092 0.0041160965 -0.18785879 0.14849758 -0.011405782 -0.039720833 0.15377949 0.16798195
00000000: e0af ec3d 1087 03bc f7f2 0a3e 0c88 8abd
00000010: 4ca6 f93c b97e 82bd 34cb b5bd a9df 58be
00000020: 320d 4bbd 44eb cdbd 4136 a93c 7bed 06bd
00000030: 5d06 59bd ab1a 0cbe 5cb8 07bd 8834 bf3d
00000040: 8874 cd3c 9bb2 02be 3e68 d3bd 9249 cd3c
00000050: c552 9c3c 9f8f 873a 04b2 b73d c869 a43c
00000060: 4a8c 563d 4486 ecbc b97e 12be 966e b8bd
00000070: 8919 423e 953b a0bd 4faa 50bd c28f 04ba
00000080: ba34 2fbd f376 313d 93b4 093e 99b9 dbbb
00000090: 716f 513d b1d6 22bd ae73 ebbc 5953 9d3d
000000a0: 0cc2 403e c094 983d fe3f 49bd de57 68bd
000000b0: 6562 7d3d b236 423d 5f09 33be 8538 a0bd
000000c0: f282 2b3d 7fa4 ea3d 3426 0f3e 1b88 1a3e
000000d0: ae96 bf3d 4aec a7bc 9463 a1bd 9e1e 993d
000000e0: 2a2e d43d ced4 8b3d deeb f33d 721b 3abd
000000f0: 9c6e 323d 8775 09bc ba22 09be d120 5fbe
00000100: a563 ed3b 6b3b 22be f670 7fbe c7ed 4bbe
00000110: edf6 21be 2f02 0bbe a3c8 b2bd d6a6 5cbe
00000120: e37d 9f3d 38ad 3cbd f268 733d ea61 9dbc
00000130: 5a7c abbd e950 bdbd c509 10bd 8540 c4bd
00000140: 996a 153c 3d74 acbd 373f 933e e52e b0bd
00000150: c2ec e6bd 5cd5 7b3d 0c2b 86bd 01bd 09be
00000160: 7096 7ebd c69b 9b3d a0d2 a5bc e672 71be
00000170: e472 3cbe 998e 9b3d 3a8c 683e ba91 a03d
00000180: 81e7 12bd b328 c3bd ba89 543c 4d86 7abd
00000190: 8d0e 3dbe 8e53 06be bb1b aebd 5188 003e
000001a0: e11c e2bb 1249 6c3d eb47 213e f6e2 313e
000001b0: a954 eebc 0d58 7f3d 1f8b 063e 47f4 b4bd
000001c0: 3679 0e3e ca0b a5be 3314 42bd 44c9 06be
000001d0: 5c74 1e3e dfbe 35be bcb3 9d3e 0acf 863c
000001e0: ce35 6d3e a28e 083e da64 aabe e483 8fbe
000001f0: 4d8c 3dbe 8ba9 253e c39e 3bbe 9275 6fbd
00000200: 2c8d 99be 04fb 993e b8e3 fc3e f8d1 813e
00000210: d2ce 41be 5100 cfbd 173b 91be 5439 c0be
00000220: 7628 b8bd 52e0 863b 0e5e 40be c00f 183e
00000230: 51df 3abc 50b2 22bd 5f78 1d3e 7603 2c3e

net._orig_mod.VPConv.DSBlock2.Conv.bias f4 [4]
-0.16837932 -0.11589227 -0.15102854 -0.04971276
00000000: a16b 2cbe ed58 edbd 3aa7 1abe 9b9f 4bbd

net._orig_mod.VMConv.DSBlock0.Conv.weight f4 [4, 4, 3, 3]
0.06522635 0.0053919847 0.027745418 0.024392141 0.06982348 -0.059711754 -0.017453484 0.025131442
0.08812555 -0.09610182 0.042659767 0.15694606 0.073349565 -0.08298849 -0.033698224 -0.08670263
-0.1319381 -0.14868274 0.033131484 -0.06811323 -0.11269723 0.15946084 0.061494827 -0.06899313
-0.049014095 0.026651872 0.103646904 0.017880265 -0.08885042 0.10528572 0.057069607 0.02610177
0.14385146 -0.02759669 0.046093892 -0.15211108 -0.04231673 -0.11223961 -0.12667164 -0.13453732
0.07066387 0.0934124 -0.053283732 0.049377576 0.0500334 -0.06232315 -0.038507897 0.1726926
0.09170269 -0.048136603 0.07039614 0.009302746 -0.062127277 0.08755592 -0.115628384 0.018392935
0.11471674 -0.045272946 -0.13777965 -0.112564586 -0.06483207 0.08056406 0.121861555 0.022176359
-0.01357366 0.071256615 -0.049158927 -0.05967308 0.008791089 0.0848826 -0.06371477 -0.05096119
-0.15824777 -0.0821696 -0.08817718 0.11606776 0.03764251 0.049825605 -0.07920803 0.14050317
-0.07126236 0.017242014 0.004909744 -0.0046636383 0.14385732 0.050931554 0.07493313 -0.0711222
-0.08770613 0.10458874 -0.07785141 0.22471747 -0.12460127 -0.13010685 -0.19721356 0.11603532
-0.0037660706 0.07983056 0.023263238 -0.05812629 0.05657735 -0.044706587 0.058074124 0.06931946
0.0062287026 -0.09181535 -0.12822041 0.011361033 -0.03121664 -0.044400282 0.008790077 0.011111013
-0.09188304 0.03674974 0.049115244 -0.08353251 0.022939183 -0.09844229 0.14343244 0.03771224
0.08272177 -0.113532424 -0.034216866 -0.03378872 0.083540216 -0.066762306 0.016079247 -0.03368435
0.24388364 0.052324943 -0.1010482 -0.0026294785 -0.07246839 -0.0059542456 0.066037394 -0.12524298
-0.045432217 0.14839353 0.14994375 0.099544264 0.058394004 0.063312866 -0.16031 -0.20042877
00000000: 6595 853d 3faf b03b 5c4a e33c 07d2 c73c
00000010: 9dff 8e3d 5094 74bd 9cfa 8ebc 74e0 cd3c
00000020: 2b7b b43d 08d1 c4bd 02bc 2e3d 78b6 203e
00000030: 4c38 963d dff5 a9bd 2607 0abd 2691 b1bd
00000040: c81a 07be 4a40 18be e1b4 073d f37e 8bbd
00000050: cecd e6bd b449 233e 00e2 7b3d 454c 8dbd
00000060: 01c3 48bd 0755 da3c d444 d43d a279 923c
00000070: 36f7 b5bd 0aa0 d73d d2c1 693d 61d3 d53c
00000080: cc4d 133e 7412 e2bc f3cc 3c3d 02c3 1bbe
00000090: 4f54 2dbd e1dd e5bd 36b6 01be 27c4 09be
000000a0: 38b8 903d 004f bf3d 0b40 5abd 2440 4a3d
000000b0: d3ef 4c3d 8f46 7fbd 75ba 1dbd 54d6 303e
000000c0: 9fce bb3d e32a 45bd da2b 903d 8b6a 183c
000000d0: 2c79 7ebd 8550 b33d 93ce ecbd c8ac 963c
000000e0: 9cf0 ea3d 2070 39bd 1c16 0dbe 4388 e6bd
000000f0: adc6 84bd c5fe a43d 8d92 f93d 32ab b53c
00000100: 0e64 5ebc fdee 913d df5a 49bd c26b 74bd
00000110: 8008 103c eed6 ad3d e47c 82bd aebc 50bd
00000120: b40b 22be 8948 a8bd 3d96 b4bd efb4 ed3d
00000130: 082f 1a3d ef15 4c3d d237 a2bd 10e0 0f3e
00000140: 00f2 91bd 203f 8d3c ebe1 a03b 6fd1 98bb
00000150: 554f 133e 9b9d 503d 8a76 993d 84a8 91bd
00000160: 469f b3bd 9f32 d63d 8f70 9fbd 561c 663e
00000170: f32e ffbd bb3a 05be 5af2 49be eda3 ed3d
00000180: 2ed0 76bb 347e a33d 8c92 be3c d515 6ebd
00000190: a7bd 673d 411e 37bd 22df 6d3d 5cf7 8d3d
000001a0: 251a cc3b b009 bcbd 364c 03be a023 3a3c
000001b0: 0aba ffbc 12dd 35bd 4104 103c f70a 363c
000001c0: 2d2d bcbd e586 163d 112d 493d 1813 abbd
000001d0: f4ea bb3c 1d9c c9bd f4df 123e 2678 1a3d
000001e0: 086a a93d b083 e8bd fc26 0cbd 0a66 0abd
000001f0: 2217 ab3d adba 88bd a0b8 833c 9af8 09bd
00000200: a2bc 793e ae52 563d 5cf2 cebd 5453 2cbb
00000210: 4f6a 94bd d51b c3bb 9d3e 873d b23f 00be
00000220: 2217 3abd 79f4 173e db8a 193e dddd cb3d
00000230: 8d2e 6f3d 2daa 813d 4e28 24be 333d 4dbe

net._orig_mod.VMConv.DSBlock0.Conv.bias f4 [4]
-0.053089324 -0.014643333 0.010589945 -0.05130154
00000000: 3174 59bd 97ea 6fbc 7381 2d3c 9021 52bd
