logs/train/runs/pannet/checkpoints/epoch=48-val_psnr=29.8818-val_ssim=0.8484.ckpt (torch, 999694 bytes, 130 tensors)

net._orig_mod.layer_0.0.weight f4 [4, 4, 8, 8]
0	0xbd6e490d	-0.058175135
1	0x3dad2573	0.084544085
2	0xbe109bba	-0.14121905
3	0xbe1e1429	-0.15437378
4	0xbe03ef9d	-0.12884374
5	0xbd740f36	-0.05958482
6	0x3c227a47	0.0099168485
7	0x3d6d51f9	0.057939503
8	0xbbc20976	-0.005921538
9	0xbd32979a	-0.04360161
10	0x3c930be2	0.017950002
11	0x3df18159	0.11792249
12	0x3d7daeed	0.0619344
13	0x3cc7f989	0.02441098
14	0x3c31191e	0.010809211
15	0xbdaea99a	-0.08528443
16	0x3d9a197c	0.07524392
17	0x3b94b04c	0.004537618
18	0x3e1ba206	0.15198526
19	0x3e848922	0.25885874
20	0x3db834b4	0.08994427
21	0x3d011772	0.0315165
22	0xb686b8bd	-4.0150176e-06
23	0xbde4d78a	-0.11173923
24	0x3d8691a0	0.065707445
25	0x3db99a4a	0.090626314
26	0x3b00c384	0.0019647786
27	0xbd1ae7ba	-0.037818648
28	0xbd406622	-0.0469724
29	0xbda8c4d2	-0.082406655
30	0xbda9a4c4	-0.0828338
31	0xbe49a2dd	-0.19691034
32	0x3ac966ea	0.0015365754
33	0x3cdad043	0.026710635
34	0x3d6fcb1d	0.058543313
35	0x3e135a9d	0.14390035
36	0xbdac9d40	-0.084284306
37	0xbcd52257	-0.026017351
38	0xbd516b7b	-0.051127892
39	0xbe42e51d	-0.19032712
40	0x3d2b96a4	0.04189171
41	0x3c9df1f1	0.019280406
42	0x3e1311f9	0.14362325
43	0x3e5497cf	0.20761035
44	0x3d3d00e9	0.046143446
45	0x3cae19b8	0.021252498
46	0x3d59a891	0.053139273
47	0xbc980b16	-0.018559974
48	0x3d87a611	0.066234715
49	0xbd0e8b23	-0.03480066
50	0xbd4e7cc9	-0.050411973
51	0xbdb5b699	-0.08872718
52	0xbdbce9ea	-0.09224303
53	0xbda85674	-0.082196146
54	0xbd1340b0	-0.035950363
55	0x3d4bfb81	0.0498004
56	0xbbb38298	-0.0054782145
57	0xbcbce425	-0.023058007
58	0xbe310bf8	-0.17289722
59	0xbea1e0ed	-0.31616917
60	0xbe40b699	-0.18819655
61	0xbe055f17	-0.13024555
62	0xbbb6f767	-0.005583692
63	0x3d56c2ee	0.052431993
64	0xbdfc71d7	-0.12326401
65	0x3d78b85a	0.060722686
66	0x3de35474	0.111000925
67	0x3d97d14b	0.07412966
68	0x3dd7fe3b	0.105465375
69	0x3d3a279a	0.045447923
70	0x3cba528e	0.022744443
71	0xbd65f018	-0.056137174
72	0x3c8a6e31	0.016898246
73	0x3d9e6a44	0.07735112
74	0x3cfc9c39	0.030836212
75	0x3d765fbc	0.060149893
76	0x3ca67e32	0.020323846
77	0x3d898d16	0.06716363
78	0xbca51fb4	-0.020156719
79	0xbd485e82	-0.048918255
80	0x3e1f3542	0.1554766
81	0xbcc7af09	-0.024375455
82	0xbda19689	-0.078900404
83	0xbe0548b0	-0.1301601
84	0xbdede4df	-0.11615919
85	0xbdc729b6	-0.097247526
86	0xbd3e8824	-0.046516553
87	0x3c8b80c8	0.017029181
88	0x3e568ae3	0.20951419
89	0x3c4ce601	0.012506009
90	0x3c497537	0.012296013
91	0xbc113f6f	-0.008865221
92	0xbe34834f	-0.17628215
93	0xbe2cae7c	-0.16863436
94	0xbc37ef85	-0.0112265395
95	0x3db42ae2	0.08797242
96	0x3e429653	0.19002657
97	0x3c216892	0.009851592
98	0x3c1c3d7a	0.0095361415
99	0xbc623be6	-0.013808226
100	0xbe1a15e9	-0.1504742
101	0xbe53b2eb	-0.2067372
102	0x3b973f51	0.004615702
103	0x3e3acbce	0.18241808
104	0x3e187aed	0.14890642
105	0xbd73b4e6	-0.05949869
106	0xbda3f4da	-0.08005686
107	0xbe34f873	-0.17672901
108	0xbe7094cd	-0.23494263
109	0xbdc43451	-0.09580291
110	0xbb1749ca	-0.0023084753
111	0x3dc8b85d	0.098007895
112	0x3d05a618	0.032629102
113	0xbc05afb5	-0.008159568
114	0x3b1d3786	0.0023989393
115	0xbc4d0ff3	-0.01251601
116	0x3ab4b399	0.0013786434
117	0x3d1f3c11	0.038875643
118	0xbc713c30	-0.0147238225
119	0xbd121d01	-0.03567219
120	0xbe2bce2b	-0.16777866
121	0x3d20618d	0.03915553
122	0x3e171ee4	0.14757878
123	0x3e48fbae	0.19627258
124	0x3e16d8a6	0.14731082
125	0x3d74f727	0.059806015
126	0xbccecd1b	-0.025244286
127	0xbd8820df	-0.06646895
128	0xbc67b262	-0.014141651
129	0x3d4144bf	0.047184702
130	0xbcb2e941	-0.02183974
131	0x3de3f417	0.11130541
132	0x3ddc432e	0.10755001
133	0x3d9f3e90	0.07775605
134	0xbc755c99	-0.01497569
135	0xbd2c58ca	-0.042076863
136	0x3d2a7d6c	0.041623518
137	0x3d493416	0.04912194
138	0x3cda3fbc	0.026641719
139	0x3e0c303f	0.1369028
140	0xbc29f101	-0.010372401
141	0x3da6c041	0.08142138
142	0x3d1fe914	0.03904064
143	0xbcbac410	-0.022798568
144	0x3dd14e58	0.10220021
145	0x3d2a5e1b	0.041593652
146	0x3d061870	0.03273815
147	0x3d3d2e90	0.046186984
148	0x3d2a8b1f	0.041636582
149	0x3c8be10c	0.017075084
150	0x3d836ac5	0.06416849
151	0x3d8f574d	0.06999073
152	0x3d292659	0.041296337
153	0x3d3ad612	0.04561431
154	0xbc4a6a16	-0.012354394
155	0x3c27208c	0.010200631
156	0x3c8ec9fe	0.017430302
157	0x3d8136bc	0.06309268
158	0xbc4e28d0	-0.012582973
159	0xbcd5cc9a	-0.026098538
160	0x3df87f20	0.12133622
161	0xbe11d4b9	-0.14241304
162	0xbd0645f0	-0.03278154
163	0xbb35f9d0	-0.0027767308
164	0xbe5c575e	-0.21517703
165	0x3d17719e	0.03697359
166	0x3dabf537	0.083963804
167	0x3d75570b	0.059897464
168	0x3dc14844	0.09437612
169	0xbdf8a1fd	-0.12140272
170	0xbd6f3d8f	-0.058408316
171	0xbd943d19	-0.07238216
172	0xbde3f4f8	-0.111307085
173	0x3d678ac4	0.05652882
174	0x3d78a012	0.06069953
175	0x3ddcd875	0.107834734
176	0xbdd9bc0e	-0.10631572
177	0xbd6af8b9	-0.057366107
178	0xbde6f73b	-0.11277624
179	0xbe11587c	-0.1419391
180	0x3d1f5da5	0.038907666
181	0xbcd72c31	-0.02626619
182	0xbd558dcd	-0.052137185
183	0x3d34d3fb	0.044147473
184	0xbd897e05	-0.067134894
185	0xbdd253ef	-0.10269915
186	0xbe0d0bf3	-0.1377409
187	0xbe210e61	-0.15728141
188	0xbdca65b2	-0.09882678
189	0xbd1c2720	-0.03812325
190	0x3c218962	0.009859415
191	0x3d9bba42	0.07603885
192	0xbdbbd6b4	-0.09171811
193	0x3dde92cc	0.10867843
194	0x3d5fbfb3	0.054626178
195	0x3e4efc37	0.202134
196	0x3e0e1dbf	0.13878535
197	0xbc810cfa	-0.015753258
198	0x3c6e5a3f	0.0145478835
199	0xbe1137f1	-0.14181496
200	0xbd10e776	-0.03537699
201	0x3bea3b8d	0.0071482123
202	0x3da4b0b8	0.08041519
203	0x3e3f6a64	0.18692929
204	0x3d9ddaea	0.0770777
205	0xbcfb6792	-0.030689035
206	0xbd0d4ae9	-0.034495268
207	0xbd9c1aa6	-0.0762227
208	0xbcdebc93	-0.027189529
209	0x3da0c5ac	0.07850203
210	0x3b8d0e74	0.0043047015
211	0x3e1e23c2	0.15443328
212	0x3cff744e	0.031183388
213	0xbd2f975d	-0.04286896
214	0x3d1bc267	0.038027193
215	0xbd85c63d	-0.065319516
216	0x3dbc2222	0.09186198
217	0xbde3b83f	-0.111191265
218	0xbd951a54	-0.07280412
219	0x3d19ff77	0.037597146
220	0xbe24675b	-0.16055052
221	0xbdafe5bd	-0.08588741
222	0x3b808d04	0.0039230604
223	0xbaf75888	-0.0018870989
224	0x3e4b192f	0.19833826
225	0xbe4ce1b3	-0.20007972
226	0xbe7bbc2d	-0.24583502
227	0xbd1fe0af	-0.039032634
228	0xbe58f873	-0.21188526
229	0xbe47be92	-0.1950629
230	0x3d6056fd	0.05477046
231	0x3e1c9be3	0.15293841
232	0x3e69e4ac	0.22841138
233	0xbe1747b1	-0.14773442
234	0xbea37719	-0.31926802
235	0xbe3a3e12	-0.1818774
236	0xbe7ec271	-0.24878861
237	0xbe230c33	-0.15922622
238	0x3dbcf827	0.09227019
239	0x3e4d0758	0.20022333
240	0x3e12c9ff	0.14334868
241	0xbe3fba1d	-0.1872334
242	0xbead66bf	-0.33867452
243	0xbe4f9b70	-0.20274138
244	0xbe867eb0	-0.2626853
245	0xbe2eccfe	-0.17070386
246	0x3da05f6f	0.078307025
247	0x3df99e51	0.121883996
248	0x3d8da656	0.06916492
249	0xbe1f8170	-0.1557672
250	0xbe684f8d	-0.22686596
251	0xbde90688	-0.11378199
252	0xbdb34512	-0.087534085
253	0xbd4b9689	-0.04970411
254	0x3d6f9425	0.05849089
255	0x3d6e1190	0.058122218

net._orig_mod.layer_0.0.bias f4 [4]
0	0x3b05a14c	0.002039033
1	0x3b1195c2	0.0022214507
2	0x3b3050b9	0.0026903583
3	0xbaf48f05	-0.0018658346

net._orig_mod.layer_1.0.weight f4 [32, 5, 3, 3]
0	0x3e8d3fd1	0.2758775
1	0x3d0c7d87	0.0342994
2	0x3e48a5f5	0.19594558
3	0xbd917768	-0.07102853
4	0x3e27a946	0.16373166
5	0xbd94eae3	-0.072713636
6	0x3e173ad3	0.14768533
7	0x3e82178d	0.25408593
8	0x3e10a923	0.1412702
9	0xbe810e6c	-0.25206316
10	0x3d0d0c37	0.034435477
11	0x3e515e71	0.20446183
12	0xbe37b829	-0.17941345
13	0x3e29b041	0.16571142
14	0x3e5824a5	0.21107729
15	0xbd950aa5	-0.07277421
16	0x3cab092b	0.020878395
17	0x3e0df2f5	0.13862212
18	0xbe1da1d3	-0.15393762
19	0xbc8e777d	-0.01739096
20	0x3e36ff3a	0.17870799
21	0xbe7399d9	-0.23789157
22	0x3da6df27	0.08148032
23	0x3e1cdc30	0.1531837
24	0xbe603847	-0.21896468
25	0xbc2d54bc	-0.010579284
26	0x3e21824b	0.15772359
27	0xbe1a390b	-0.15060823
28	0xbe0355c8	-0.12825692
29	0xbe1cf72c	-0.15328664
30	0xbd33454c	-0.04376726
31	0xbda8169c	-0.082074374
32	0xbddd65b1	-0.10810412
33	0x3e3508d7	0.17679153
34	0x3e73de1d	0.23815198
35	0x3e553ad9	0.2082323
36	0xbe434880	-0.19070625
37	0xbca1eb36	-0.019765478
38	0xbe5c12dc	-0.2149157
39	0x3dbaf305	0.091283835
40	0x3d949686	0.072552726
41	0x3d55f296	0.0522333
42	0x3e37a68f	0.17934631
43	0x3e09544d	0.13411064
44	0x3c824f9b	0.0159071
45	0xbd09abc7	-0.033611085
46	0xbd87ff20	-0.06640458
47	0x3d95a6ec	0.073072284
48	0xbd0c16b0	-0.034201324
49	0x3d0457a6	0.03231015
50	0xbddfc134	-0.109255224
51	0x3c6e5b1b	0.014548088
52	0xbd1c5eef	-0.038176473
53	0xbc49de5b	-0.01232108
54	0xbddc5d70	-0.10760009
55	0xbe183ff3	-0.14868145
56	0x3b5c528f	0.0033618545
57	0x3d8c6d3a	0.06856771
58	0x3de931fd	0.11386488
59	0x3d8664c5	0.06562189
60	0xbdfe8401	-0.124275215
61	0xbe3d9d4d	-0.18517037
62	0x3ba37fbf	0.0049895938
63	0x3d8f75eb	0.07004913
64	0xbe0a6b6c	-0.1351754
65	0x3d84f381	0.06491757
66	0x3d969d7a	0.07354255
67	0xbd10ef6e	-0.035384588
68	0xbdf00117	-0.11718958
69	0x3d7639d9	0.06011376
70	0x3bd4cee0	0.006494388
71	0x3d4b5e5c	0.049650535
72	0xbe091e3a	-0.13390437
73	0x3d2f0f20	0.042739034
74	0xbe086619	-0.13320197
75	0x3e17b4a9	0.1481501
76	0xbd85c932	-0.065325156
77	0x3da1bccd	0.07897339
78	0x3d192990	0.037393153
79	0x3d248e20	0.040174603
80	0xbd13af57	-0.03605589
81	0x3dce02a9	0.10059101
82	0xbca916dc	-0.020640783
83	0xbdbf4dad	-0.09340987
84	0xbc7ef54a	-0.015561411
85	0x3e20d204	0.15705115
86	0x3c207384	0.009793166
87	0x3db5e990	0.08882439
88	0xbc6aaade	-0.0143229645
89	0x3e21c2a5	0.15796907
90	0x3e2f9a0b	0.17148606
91	0x3d7e0657	0.062017765
92	0xbc235848	-0.009969778
93	0x3ca68e32	0.020331476
94	0x3e0ea08a	0.13928428
95	0x3d9f81e5	0.07788447
96	0x3deafd07	0.114740424
97	0xbd4069d8	-0.04697594
98	0x3dc7dd1a	0.09758969
99	0x3ddaaa05	0.1067696
100	0xbd0b709c	-0.03404294
101	0x3d9cf31d	0.07663558
102	0xbdfae8bb	-0.12251421
103	0xbdfa6d60	-0.12227893
104	0x3c0ff43f	0.00878626
105	0x3cbd04e0	0.023073614
106	0xbe512a69	-0.20426334
107	0x3da27f6b	0.07934459
108	0x3e37e2fe	0.17957684
109	0x3e87fee6	0.2656166
110	0x3e6270f5	0.22113402
111	0x3d64ca42	0.05585695
112	0x3dba2eb5	0.0909094
113	0xbd89cf60	-0.06729007
114	0x3c5639f0	0.013075337
115	0xbe0d724d	-0.13813134
116	0xbe67959e	-0.22615668
117	0xbe0e5b8b	-0.13902108
118	0xbd5d7327	-0.054064896
119	0xbe7f13e5	-0.24909933
120	0x3cf7810d	0.030212903
121	0xbe8b4ad0	-0.27205515
122	0xbca7caf7	-0.020482523
123	0x3b6d2ae3	0.0036188893
124	0xbdac96fe	-0.08427237
125	0x3ea61484	0.32437527
126	0xbe807bc2	-0.2509442
127	0xbdfdca01	-0.12392045
128	0xbd3f4d4b	-0.04670457
129	0x3d7270ec	0.059189722
130	0xbd1e2095	-0.03860529
131	0x3f198c01	0.59979254
132	0x3d760ba0	0.06006968
133	0x3e7c5aa3	0.2464395
134	0x3e881fe0	0.2658682
135	0xbd40e733	-0.04709549
136	0xbdd81578	-0.1055097
137	0xbd11fb13	-0.035639834
138	0xbe734e8e	-0.23760435
139	0xbd29893c	-0.041390643
140	0xbc3139a4	-0.010816965
141	0xbe1db900	-0.15402603
142	0x3c959e43	0.018263942
143	0xbd9cf0bc	-0.07663104
144	0xbca3411d	-0.01992851
145	0xba032cee	-0.00050039485
146	0x3e59e87c	0.21280092
147	0x3d32fa84	0.04369594
148	0xbd38e38a	-0.045138873
149	0xbd375da1	-0.044767026
150	0x3d12f3a2	0.035876878
151	0xbc926e43	-0.017874843
152	0x3d522376	0.05130335
153	0x3d859c2d	0.06523929
154	0x3dbb75c6	0.09153323
155	0x3e85ef35	0.26159063
156	0x3940fb44	0.0001840415
157	0xbdb861e7	-0.090030484
158	0xbd16463d	-0.03668808
159	0x3ddd55d7	0.10807388
160	0xbd6d28dc	-0.057900295
161	0x3dbf33f9	0.09336085
162	0xbe3a33d6	-0.18183836
163	0xbdeddefd	-0.11614797
164	0xbd811350	-0.06302512
165	0x3b2c8b03	0.0026327975
166	0xbd96d059	-0.07363958
167	0x3dd87c60	0.10570598
168	0xbd1e4e01	-0.03864861
169	0x3de1cdef	0.11025607
170	0x3e166caa	0.1468989
171	0xbb3519e5	-0.0027633843
172	0xbd8815a5	-0.06644753
173	0xbc90c96f	-0.017674176
174	0x3c1387da	0.0090045575
175	0x3e23a2e3	0.15980105
176	0x3d103c1d	0.03521358
177	0xbd4c0494	-0.049809054
178	0x3d8ab602	0.067729965
179	0x3d8c902c	0.06863436
180	0x3d4ce26d	0.050020624
181	0x3cab4e69	0.020911412
182	0xbd4faccc	-0.0507019
183	0xbe468554	-0.19386798
184	0x3e9daf55	0.3079783
185	0x3d7c4e66	0.061598204
186	0xbd633239	-0.055467818
187	0x3e1a6a2c	0.15079564
188	0xbd9754d4	-0.073892266
189	0xbec92c89	-0.3929179
190	0x3ddf038d	0.10889349
191	0xbd402cbb	-0.04691766
192	0xbe1c3d09	-0.15257658
193	0xbb193ca0	-0.0023382083
194	0xbd42e0b9	-0.047577593
195	0xbd86a06b	-0.06573566
196	0x3d307bb3	0.04308672
197	0xbda19cb7	-0.07891219
198	0x3dcaeec1	0.0990882
199	0x3e3e4b54	0.18583423
200	0x3de30a4e	0.1108595
201	0xbd7b3ebe	-0.061339132
202	0x3e102057	0.14074837
203	0x3e430d21	0.19047977
204	0xbd9defa8	-0.077117264
205	0x3d9b7f12	0.07592596
206	0x3d6d1b52	0.057887383
207	0xbe03d863	-0.12875514
208	0xbd0c8fdb	-0.03431688
209	0x3d0d90a3	0.034561764
210	0xbd85c98c	-0.06532583
211	0x3e17e330	0.14832759
212	0x3d8f84a3	0.0700772
213	0xbcf1905c	-0.029487781
214	0x3d829281	0.063756
215	0x3da70481	0.08155156
216	0x3de8db5f	0.11369967
217	0x3b6ec802	0.0036435132
218	0xbdbfa880	-0.09358311
219	0x3e024554	0.12721759
220	0x3c417278	0.011807077
221	0x3d8e45a2	0.06946875
222	0x3e04c206	0.12964639
223	0x3c621633	0.013799238
224	0x3d88c7a5	0.06678704
225	0xbd18d218	-0.037309736
226	0x3ba2e147	0.004970703
227	0x3e40d3c6	0.18830785
228	0x3bfc4364	0.0076984633
229	0x3daa658e	0.08320151
230	0xbb10a74d	-0.0022072375
231	0xbdde94f0	-0.10868251
232	0xbd5326c8	-0.051550657
233	0x3e1b545a	0.15168896
234	0xbe22b3a7	-0.15888844
235	0xbd0187cc	-0.031623647
236	0x3de2006b	0.11035236
237	0x3d2e4b40	0.042552233
238	0xbc44f9c1	-0.012022437
239	0x3d780c6a	0.060558714
240	0xbdabc8c1	-0.083879
241	0xbe5fb00e	-0.21844503
242	0xbd961a89	-0.0732928
243	0x3e08c9f7	0.13358293
244	0x3dbde754	0.09272638
245	0x3ea5f72f	0.3241515
246	0x3ccf454f	0.025301604
247	0xbcc5c27e	-0.024140593
248	0x3e424a2d	0.18973608
249	0x3da6b5a2	0.081401125
250	0xbda2dc59	-0.07952184
251	0x3e8eac3b	0.27865776
252	0xbe5975ff	-0.21236418
253	0x3d4f7803	0.05065156
254	0x3da067d0	0.07832301
255	0xbde5bbbd	-0.11217449

net._orig_mod.layer_1.0.bias f4 [32]
0	0x3e87b3ce	0.26504368
1	0xbe432eae	-0.19060776
2	0xbe12c965	-0.14334638
3	0xbcca21f4	-0.024674393
4	0xbd8f6766	-0.070021436
5	0x3e0c5ea9	0.13707985
6	0xbe3c8a94	-0.18412238
7	0xbda7fca5	-0.08202485
8	0x3e9e7cd4	0.3095461
9	0x3e0a3ae3	0.13499026
10	0xbc2eaff8	-0.010662071
11	0xbdfc9d72	-0.12334718
12	0xbe36251d	-0.17787595
13	0xbd4cfed4	-0.05004771
14	0x3e6a8299	0.22901382
15	0xbd590eef	-0.052992757
16	0xbb8c4ffa	-0.004281995
17	0xbe23a548	-0.15981019
18	0xbd6a8089	-0.057251487
19	0x3e0b6217	0.13611637
20	0x3e68f7b5	0.22750743
21	0x3d9906f6	0.07472031
22	0xbae43d48	-0.0017413283
23	0x3ed5741c	0.41690147
24	0x3dbe83f6	0.09302513
25	0xbd1da66a	-0.038488783
26	0xbdb0f568	-0.086405575
27	0x3d61e21f	0.055147287
28	0x3dcb6489	0.09931285
29	0x3d900139	0.07031483
30	0x3e59e649	0.21279253
31	0xbdc055b0	-0.093913436

net._orig_mod.layer_2.0.0.net.0.weight f4 [32, 32, 3, 3]
0	0xbddaec4d	-0.10689602
1	0xbe1cc612	-0.15309933
2	0x3e2c9196	0.16852412
3	0xbe495718	-0.1966213
4	0xbdee0b85	-0.11623291
5	0x3d5c7053	0.05381806
6	0xbeb03eb3	-0.34422836
7	0xbe5c69f8	-0.21524799
8	0xbe1bfc5c	-0.15232986
9	0xbd52b09b	-0.051437955
10	0xbdb73461	-0.08945537
11	0x3bb8fc04	0.005645277
12	0x3d1aec5a	0.03782306
13	0x3d904d65	0.07046012
14	0x3d503916	0.05083569
15	0xbc5ad7d3	-0.013357121
16	0x3ca77096	0.020439427
17	0x3c477ca3	0.012175712
18	0xbdc930bf	-0.09823751
19	0xbe567189	-0.20941748
20	0xbe8edaa2	-0.2790118
21	0xbe335b6c	-0.17515343
22	0xbe2db4ad	-0.16963454
23	0xbe4f881e	-0.20266768
24	0xbddcb0aa	-0.107758835
25	0xbe3f456e	-0.18678829
26	0xbe13d82e	-0.14437935
27	0xbba68485	-0.0050817155
28	0xbdb34b58	-0.08754605
29	0xbd474f4f	-0.04865962
30	0x3c334460	0.010941595
31	0xbd680bb0	-0.05665177
32	0x3d6acc4c	0.05732374
33	0x3d1fd740	0.039023638
34	0x3c93b12c	0.018028818
35	0x3e034b49	0.12821688
36	0x3d96964f	0.07352888
37	0xbdde4b73	-0.108542345
38	0xbda94899	-0.082658
39	0xbd4b41f5	-0.04962345
40	0xbe1d54e5	-0.15364416
41	0xbe01ffe9	-0.12695278
42	0x3c91c901	0.017796041
43	0x3bf82e04	0.007573845
44	0xbd7b12c8	-0.061297208
45	0x3de2f94c	0.11082706
46	0xbd2fae76	-0.04289099
47	0xbc112a32	-0.008860158
48	0x3da396a2	0.07987715
49	0xbc352ab8	-0.011057548
50	0x3dcc10f6	0.099641725
51	0x3e86d321	0.26332954
52	0x3e004bcf	0.12528919
53	0x3d4ae833	0.04953785
54	0xbd6f1892	-0.05837304
55	0xbe192edc	-0.14959282
56	0xbe3490b5	-0.17633326
57	0xbdc56332	-0.09638061
58	0xbe0860c7	-0.13318168
59	0xbdeeb323	-0.11655261
60	0x3be2f3af	0.006926022
61	0x3d59231f	0.05301201
62	0x3d08802e	0.033325367
63	0x3bebf634	0.0072009806
64	0xbd6a838e	-0.057254367
65	0x3cf87de3	0.030333465
66	0xbc1f8921	-0.009737284
67	0xbcf70de1	-0.030157985
68	0x3d82f0a0	0.06393552
69	0xbdd0ed1e	-0.102014765
70	0x3d43482b	0.047676247
71	0x3e4b416c	0.19849175
72	0xbdb3fee7	-0.08788853
73	0x3daaedde	0.08346151
74	0x3b7a2ded	0.0038174347
75	0xbdef9888	-0.11699015
76	0x3d541002	0.05177308
77	0xbd56d2e0	-0.0524472
78	0xbd3eb9dc	-0.046563968
79	0xbd1d641c	-0.03842555
80	0xbd826b4b	-0.06368121
81	0x3e69d817	0.22836338
82	0x3e25cb51	0.1619084
83	0x3e2c2ba3	0.16813521
84	0xbd7f7f54	-0.06237729
85	0x3de5b455	0.11216036
86	0x3e3f81f3	0.18701915
87	0xbd4330ba	-0.04765389
88	0x3dffb49f	0.124856226
89	0x3de18c17	0.11013048
90	0x3ca00386	0.01953293
91	0x3d74580f	0.05965429
92	0x3e16f34c	0.14741248
93	0x3d3a3446	0.045460008
94	0xbd4ad036	-0.04951497
95	0xbe16b458	-0.14717233
96	0x3deb4f29	0.11489708
97	0x3c92aaaa	0.017903645
98	0xbd829047	-0.06375175
99	0x3e05e80b	0.13076799
100	0xbd780140	-0.060548067
101	0x3e312e03	0.17302708
102	0xbe864539	-0.26224688
103	0xbb540faa	-0.003235797
104	0xbd9622a3	-0.07330825
105	0xbd933d4e	-0.07189427
106	0xbde6e2fd	-0.11273763
107	0xbe2902ad	-0.16504927
108	0xbde9e7c2	-0.114211574
109	0xbe111638	-0.14168632
110	0xbd8b40ac	-0.067994446
111	0x3d3f23c0	0.046664953
112	0xbd8711b8	-0.065951765
113	0xbce7e86a	-0.028309066
114	0x3e0011a3	0.12506728
115	0xbd1b94db	-0.037983757
116	0x3ccbd9d5	0.024884144
117	0x3e550e34	0.208062
118	0x3dc5135b	0.096228324
119	0xbd90d2ae	-0.07071434
120	0xbe1e5a2d	-0.15464087
121	0x3e099225	0.13434656
122	0x3c7fff15	0.015624781
123	0x3dde2c69	0.10848314
124	0x3cde4b72	0.027135585
125	0xbe14137e	-0.1446056
126	0x3d1500ae	0.0363776
127	0xbc0aca6b	-0.008471112
128	0x3e6dfd9b	0.23241274
129	0xbc0d5e77	-0.008628479
130	0xbb08ec8e	-0.002089295
131	0x3e281b8b	0.16416757
132	0x3e699475	0.22810538
133	0x3e3ceb93	0.1844924
134	0x3e8d01b4	0.27540362
135	0x3d3d0f7d	0.04615735
136	0x3d8d0456	0.06885593
137	0x3d4d06b4	0.05005522
138	0xbd3fedb3	-0.046857547
139	0x3d5da78f	0.054114874
140	0x3cc47cbe	0.023985263
141	0x3d810e4a	0.063015535
142	0x3bac95a9	0.0052668643
143	0xbc189dca	-0.009314964
144	0x3d8f2009	0.06988532
145	0x3d166ac4	0.036722913
146	0x3d77c915	0.0604945
147	0xbdf2822b	-0.11841234
148	0x3c0dbea9	0.008651414
149	0x3d3483fa	0.044071175
150	0xbdeb30c1	-0.114839084
151	0xbd2adaaf	-0.04171246
152	0x3c5fb276	0.013653388
153	0x3ddd3a7b	0.1080217
154	0x3e37ed05	0.1796151
155	0xbb8fc388	-0.004387323
156	0x3c6035c4	0.013684694
157	0xbd2ddc92	-0.04244668
158	0x3e3aeee6	0.18255195
159	0xbe15bfb4	-0.1462391
160	0x3d8096a2	0.06278731
161	0x3e439493	0.19099645
162	0xbad339bd	-0.001611523
163	0x3e03c1e6	0.12866935
164	0x3dc73f2e	0.097288474
165	0xbcc06424	-0.02348525
166	0x3dceaa84	0.10091117
167	0x3dc8b4a1	0.09800077
168	0xbdd79bf2	-0.10527791
169	0xbdacdb44	-0.08440259
170	0xbd5c2ace	-0.05375176
171	0xbd1e3613	-0.038625788
172	0x3d650d81	0.05592108
173	0x3e7bd8e9	0.24594463
174	0xbcc407c7	-0.02392949
175	0x3debe661	0.11518551
176	0x3e421bbc	0.18955892
177	0xbdf502eb	-0.11963447
178	0x3da0f3fb	0.078590356
179	0x3e687b72	0.2270334
180	0x3d155c51	0.036464993
181	0x3ccedf2d	0.025252903
182	0x3e07c6d4	0.1325944
183	0x3dc04e79	0.093899675
184	0xbd8de9e2	-0.06929375
185	0x3d784c1e	0.060619466
186	0x3e28ca6e	0.16483471
187	0x3d1d3566	0.038381003
188	0x3d14d288	0.03633359
189	0x3e1bf0a7	0.1522852
190	0x3e092047	0.13391219
191	0x3e1055e4	0.14095265
192	0x3d86c40e	0.06580363
193	0x3e181fd2	0.14855888
194	0x3e0eb788	0.13937199
195	0x3da10bb0	0.07863557
196	0x3e59a32e	0.21253654
197	0x3e0b8974	0.13626653
198	0xbe725d23	-0.23668341
199	0x3df2a774	0.118483454
200	0x3d6da381	0.058017258
201	0xbe1f13ef	-0.15534948
202	0x3e1bd1ba	0.15216723
203	0x3d78d8c0	0.060753584
204	0xbe67172a	-0.2256743
205	0x3daa7e7c	0.08324906
206	0x3ccdb994	0.025112905
207	0x3e7a1721	0.24422885
208	0x3ea7b451	0.32754758
209	0x3e9cce3b	0.3062609
210	0x3da44fb8	0.08023018
211	0x3dcf3711	0.10117925
212	0x3e61245d	0.21986528
213	0x3e090aae	0.1338298
214	0x3ebe6583	0.37186822
215	0x3e26586b	0.16244666
216	0x3e6d4ae0	0.23173094
217	0x3e165db3	0.14684181
218	0xbcff3cd3	-0.031156933
219	0x3e4e1f89	0.20129217
220	0x3e2d9a6c	0.16953439
221	0x3d8a8238	0.067631185
222	0x3e553a7f	0.20823096
223	0x3e68b708	0.22726071
224	0x3dbf6b80	0.09346676
225	0x3b73bea9	0.00371925
226	0x3ceb2f90	0.028709203
227	0xbe11cecd	-0.14239044
228	0xbd8171d8	-0.06320542
229	0xbdaa39f0	-0.08311832
230	0xbdbedd91	-0.09319604
231	0xbe11b7db	-0.14230292
232	0x3d0d7a16	0.03454026
233	0x3d903356	0.070410416
234	0x3d8a6cc6	0.06759028
235	0xbe99160a	-0.29899627
236	0xbe8bd26e	-0.27308983
237	0xbe3247d3	-0.17410211
238	0xbd395286	-0.045244716
239	0xbdea71cd	-0.11447487
240	0x3e2391f4	0.15973645
241	0x3d80522f	0.06265675
242	0x3e2b5315	0.16730912
243	0x3dc6d9fb	0.09709545
244	0x3bf813a6	0.0075707017
245	0x3c87fba7	0.01659949
246	0xbdddb5eb	-0.10825714
247	0xbd4f52ca	-0.050616063
248	0x3cae47cf	0.021274475
249	0x3bf98191	0.0076143225
250	0x3da48ccf	0.080346696
251	0x3eacc868	0.33746648
252	0x3e1f1d8f	0.1553862
253	0x3e28d887	0.16488849
254	0x3df9e535	0.12201921
255	0x3db35ab4	0.087575346

net._orig_mod.layer_2.0.0.net.0.bias f4 [32]
0	0xbd5dc988	-0.054147273
1	0x3d1e0f68	0.03858891
2	0xbd0d5d30	-0.0345127
3	0xb9570aa0	-0.00020507956
4	0x3b4498e6	0.002999836
5	0xbc112e85	-0.008861189
6	0x3c0ec4cc	0.008713912
7	0xbd1ad91d	-0.03780471
8	0x3d572831	0.052528564
9	0xbd219262	-0.039446242
10	0xbcebc5c1	-0.02878082
11	0xbd5462de	-0.0518521
12	0x3d62b2bc	0.055346236
13	0xbcbefb24	-0.023313113
14	0xbcd361f7	-0.02580355
15	0x3cb8de15	0.022566834
16	0xbbfcd19a	-0.007715416
17	0x3d8025ff	0.06257247
18	0x3cc75b08	0.0243354
19	0xbc961e54	-0.018325008
20	0xbce7e034	-0.02830515
21	0xbd2525c7	-0.04031923
22	0x3cc3fa67	0.023923112
23	0xbc1c3091	-0.0095330635
24	0x3d739c5e	0.059475295
25	0xbd98e139	-0.07464833
26	0x3c27092c	0.010195058
27	0x3d06169f	0.032736417
28	0x3d239fbc	0.039947256
29	0x3d238b7e	0.039927952
30	0x3cf2e944	0.029652245
31	0xbd7be258	-0.061495155

net._orig_mod.layer_2.0.0.net.1.weight f4 [32]
0	0x3f141ecd	0.578595
1	0x3f40e08a	0.7534262
2	0x3f0c481f	0.5479755
3	0x3f5bb1ae	0.8581799
4	0x3fa4eef7	1.2885426
5	0x3f18a022	0.59619343
6	0x3f803dbe	1.0018842
7	0x3f01cabe	0.50699985
8	0x3f90ebfa	1.1322014
9	0x3f38c478	0.7217479
10	0x3f0d1d71	0.5512305
11	0x3f019991	0.5062495
12	0x3f92cd7b	1.1468958
13	0x3f9fe88c	1.2492843
14	0x3f22484e	0.6339158
15	0x3f538110	0.8261881
16	0x3f3feba4	0.74968934
17	0x3f986df2	1.1908553
18	0x3f98e140	1.1943741
19	0x3f8d1973	1.1023391
20	0x3f8470ea	1.0346959
21	0x3fa665d7	1.2999829
22	0x3f18e01f	0.5971698
23	0x3f5489bf	0.83022684
24	0x3f92d609	1.1471568
25	0x3f0f662a	0.56015265
26	0x3f0e2c91	0.5553675
27	0x3facc072	1.349623
28	0x3fb1cc6a	1.3890507
29	0x3f85bf48	1.0449
30	0x3fced9cf	1.616022
31	0x3f86d693	1.0534233

net._orig_mod.layer_2.0.0.net.1.bias f4 [32]
0	0x3e9f288a	0.31085616
1	0x3d4afb5b	0.049556118
2	0x3dce6d21	0.100794084
3	0xbda5179d	-0.080611445
4	0xbea54077	-0.32275745
5	0x3d4745b5	0.048650462
6	0xbe7b2d63	-0.24529032
7	0x3f29b11b	0.66285866
8	0xbe6e29cf	-0.23258136
9	0xbe025849	-0.1272899
10	0x3e16cd80	0.1472683
11	0x3e1e5db5	0.15465434
12	0xbe4da959	-0.20084132
13	0xbea3a261	-0.31959823
14	0x3f4437fe	0.7664794
15	0xbea97687	-0.33098242
16	0xbe3edbd4	-0.18638545
17	0xbec73605	-0.389084
18	0xbea7354a	-0.32657844
19	0xbe6af72c	-0.22945851
20	0xbda73a8b	-0.08165463
21	0xbeaaec5d	-0.33383456
22	0x3dff96c9	0.12479932
23	0xbc55e8d3	-0.013055998
24	0xbeddb646	-0.43303126
25	0x3eaff360	0.34365368
26	0x3f7e7bce	0.9940766
27	0xbe336161	-0.17517616
28	0xbe4d2702	-0.20034412
29	0xbe62c20b	-0.22144334
30	0xbf01f7b1	-0.5076857
31	0xbee894aa	-0.45425922

net._orig_mod.layer_2.0.0.net.1.running_mean f4 [32]
0	0x3fd3f831	1.6560117
1	0xbf8005c6	-1.0001762
2	0x3fcd2160	1.602581
3	0xbecfe079	-0.40600947
4	0xbf161573	-0.5862648
5	0x3fdfa95d	1.747356
6	0xbf538b5f	-0.8263454
7	0x3fc4bbf9	1.5369865
8	0xbe72fa88	-0.23728383
9	0x3fc7734e	1.5582063
10	0x3f961cae	1.1727502
11	0x3f9032ca	1.12655
12	0xbf304a32	-0.68863213
13	0xbf69a264	-0.91263413
14	0x3fe956ea	1.8229649
15	0xbf619fbc	-0.8813436
16	0x3f6e9b47	0.93205684
17	0xbf137408	-0.57598925
18	0xbf437e2d	-0.76364404
19	0xbf3f4426	-0.7471336
20	0xbeb9b5d1	-0.36271527
21	0xbef857eb	-0.48504576
22	0x3f59a521	0.8501759
23	0xbf4bba90	-0.79581547
24	0xbf20b682	-0.62778485
25	0x3fff35e1	1.9938318
26	0x40027e08	2.0389423
27	0xbf33c1f3	-0.7021782
28	0xbf291b13	-0.66056937
29	0xbf38e176	-0.72219026
30	0xbf5782f2	-0.8418418
31	0xbf4fa87a	-0.8111645

net._orig_mod.layer_2.0.0.net.1.running_var f4 [32]
0	0x3c02607a	0.007957572
1	0x3bd0de19	0.0063741324
2	0x3c38755f	0.011258452
3	0x3b4147ad	0.0029492185
4	0x3b8c7ea6	0.0042875586
5	0x3c3ef5b2	0.011655258
6	0x3b9530a9	0.00455292
7	0x3c2a3f94	0.010391135
8	0x3b8b54eb	0.0042520664
9	0x3c3ac4fc	0.011399504
10	0x3c11d5c1	0.008901061
11	0x3c07a7ca	0.00827975
12	0x3b8bf920	0.0042716414
13	0x3bb8b60b	0.0056369356
14	0x3c5df068	0.013546087
15	0x3b5cab36	0.0033671386
16	0x3b9995ee	0.0046870625
17	0x3ba8c5de	0.0051505407
18	0x3b91c5de	0.0044486364
19	0x3babcd87	0.0052430066
20	0x3ba7df26	0.005123037
21	0x3b9a1bb3	0.004703009
22	0x3be544c8	0.0069967248
23	0x3b66ace9	0.0035198277
24	0x3babc582	0.0052420506
25	0x3c8a8538	0.016909227
26	0x3c6c27a1	0.014413745
27	0x3b8bf8c2	0.0042715976
28	0x3ba5c26a	0.0050585764
29	0x3ba49311	0.0050224145
30	0x3b921271	0.004457765
31	0x3bc0504f	0.0058689485

net._orig_mod.layer_2.0.0.net.3.weight f4 [32, 32, 3, 3]
0	0x3bc94f20	0.0061434656
1	0x3dd3eebe	0.10348271
2	0xbd4ba750	-0.04972011
3	0xbd01fad9	-0.031733368
4	0x3c8eb96c	0.0174224
5	0x3d141362	0.036151297
6	0xbe405e45	-0.18785961
7	0xbd910648	-0.07081276
8	0xbd27b1c1	-0.040941004
9	0x3d28af67	0.0411829
10	0x3ce2bcec	0.027677976
11	0x3d328ca3	0.043591153
12	0x3ce07a9b	0.027402213
13	0x3d519813	0.05117042
14	0x3d4ad337	0.049517836
15	0x3d31f9a7	0.043450978
16	0x3dbeaa19	0.09309787
17	0x3e1b0ce6	0.15141639
18	0x3bca8da3	0.006181435
19	0x3d7460cb	0.05966262
20	0x3e1751b9	0.14777268
21	0xbbfd6704	-0.0077332277
22	0xba5d01ec	-0.00084307673
23	0x3dc61d4c	0.09673557
24	0x3ce6e17f	0.028183697
25	0xbd8a03c7	-0.06739002
26	0xbd93c7c8	-0.072158396
27	0x3d4259c3	0.047448885
28	0xbc9de4e4	-0.019274183
29	0x3d373d71	0.04473633
30	0x3c18afb6	0.0093192365
31	0x3b315889	0.0027060828
32	0x3d72a8d4	0.05924304
33	0x3dc39602	0.09550096
34	0xbc9eb52e	-0.019373503
35	0xbd8784e7	-0.06617146
36	0xbd7b6bf1	-0.061382238
37	0xbe8e672c	-0.2781309
38	0xbe99be1e	-0.3002786
39	0x3c8a6789	0.016895073
40	0xbbda1bbf	-0.0066561396
41	0xbd0e1f9e	-0.03469812
42	0xbde078c3	-0.109605335
43	0xbe4f8541	-0.20265676
44	0xbe9b7235	-0.3036057
45	0x3e28a40a	0.16468826
46	0x3e41e16a	0.18933645
47	0x3db8f162	0.09030415
48	0x3dc7053e	0.09717797
49	0x3d42c0eb	0.047547262
50	0x3d64bdd4	0.055845097
51	0xbd535858	-0.051597923
52	0xbc315bc3	-0.0108251
53	0x3d1f3107	0.038865115
54	0xbb01b664	-0.0019792551
55	0x3b617476	0.0034401692
56	0x3d7d9633	0.06191082
57	0x3cc32d7a	0.023825396
58	0xbdca0b77	-0.09865468
59	0xbcd6188b	-0.02613475
60	0xbdf46ce0	-0.11934829
61	0xbe064852	-0.13113526
62	0x3d304b03	0.043040287
63	0xbd82cf7f	-0.06387233
64	0xbe04df9c	-0.12975925
65	0x3ccb28be	0.0247997
66	0x3cb2e030	0.021835417
67	0xbbcdf5df	-0.0062854136
68	0xbe0821ff	-0.13294218
69	0xbcdce1d6	-0.026963156
70	0xbd3ff2bc	-0.04686235
71	0xbe2d7953	-0.16940813
72	0x3de7f3d7	0.11325806
73	0x3d55c9f0	0.052194536
74	0x3c2d7869	0.01058779
75	0x3da88619	0.08228702
76	0x3d49c654	0.049261406
77	0xbc38bc63	-0.011275384
78	0x3bac59d7	0.005259733
79	0xbcb02dcf	-0.021506218
80	0xbdb4813e	-0.088137135
81	0x3defc4da	0.11707468
82	0x3d5a8ad7	0.053355064
83	0x3d73deac	0.05953853
84	0x3c5ead68	0.013591148
85	0xbccc91e5	-0.024971912
86	0xbcb3a195	-0.021927634
87	0x3dbfa3bd	0.093574025
88	0x3c70095c	0.014650669
89	0x3c5efe0a	0.013610372
90	0x3d0601db	0.032716613
91	0xbda044ac	-0.07825598
92	0xbdce313b	-0.10067984
93	0xbbf8e346	-0.0075954525
94	0x3e03a119	0.12854423
95	0x3d2b281a	0.04178629
96	0xbd6c29d9	-0.057657097
97	0x3c01eeb8	0.00793045
98	0xbdf3742b	-0.11887392
99	0xbb844c3c	-0.004037408
100	0x3c141c56	0.009039959
101	0x3d24ac55	0.04020341
102	0xbd0245dc	-0.031804904
103	0xbcd3d6a4	-0.025859185
104	0xbd75be27	-0.059995797
105	0xbd8de317	-0.069280796
106	0xbc09befe	-0.0084073525
107	0xbe070658	-0.13186014
108	0xbdbb68bb	-0.09150835
109	0xbbbc929d	-0.0057547824
110	0xbd358ac6	-0.044321798
111	0xbc275d8e	-0.010215176
112	0xbc9c69cc	-0.019093417
113	0xbd0e21fc	-0.03470038
114	0xbdc2a3fe	-0.09503935
115	0xbdb61958	-0.08891553
116	0xbe24cef2	-0.16094568
117	0xbe0c1fed	-0.13684054
118	0xbe014389	-0.12623419
119	0xbd8938a8	-0.067002594
120	0xbcb35cb2	-0.021894787
121	0xbd1f125d	-0.038835872
122	0xbcff6c46	-0.031179558
123	0xbe40c851	-0.18826415
124	0xbe5d5505	-0.21614464
125	0xbe38982b	-0.18026797
126	0x3ca86ca5	0.020559618
127	0x3c4798b8	0.012182407
128	0x3d39b6e6	0.04534044
129	0xbe1d4195	-0.15357049
130	0xbd958248	-0.0730024
131	0xbda06646	-0.07832007
132	0xbe268de4	-0.16265064
133	0x3db56453	0.08857026
134	0x3da6a244	0.081364185
135	0xbc5dbdae	-0.013533993
136	0xbd4cc312	-0.04999072
137	0x3dfa6579	0.122263856
138	0xbd8c3ff3	-0.06848135
139	0xbcbe3030	-0.023216337
140	0x3c09b710	0.008405462
141	0xbe00ca8f	-0.1257727
142	0xbe6a016c	-0.22852105
143	0xbd61efee	-0.055160455
144	0xbd9a3eff	-0.07531547
145	0x3d33f496	0.043934427
146	0x3c8f1cb9	0.01746975
147	0xbd245db7	-0.040128436
148	0xbd942686	-0.0723391
149	0x3d720d57	0.059094753
150	0x3c88bc60	0.016691387
151	0xbd329a30	-0.043604076
152	0x3d75ca3d	0.060007323
153	0xbd8a52af	-0.06754052
154	0xbd9469bb	-0.07246729
155	0xbe2318ab	-0.15927379
156	0xbd4db01f	-0.05021679
157	0x3cfb7d46	0.030699383
158	0xbbfd176b	-0.007723739
159	0xbe855738	-0.26043105
160	0xbe2a18e7	-0.16611062
161	0xbe8d2db5	-0.27573934
162	0x3d824949	0.06361634
163	0x3e0dc0fc	0.13843149
164	0x3d069299	0.03285465
165	0x3bd31dfa	0.0064427825
166	0x3d01a7ce	0.03165417
167	0xbd0eb29e	-0.03483831
168	0xbdfbc98d	-0.12294302
169	0xbda22a7f	-0.07918262
170	0xbe3eeb31	-0.18644406
171	0xbd7e4cf5	-0.06208511
172	0xbdbd41f5	-0.09241096
173	0xbd7c0e8e	-0.061537318
174	0xbdb3d3ed	-0.08780656
175	0xbd4dc7de	-0.050239436
176	0xbcaa3b7d	-0.02078032
177	0xbea2e93b	-0.31818566
178	0xbe224bb8	-0.15849197
179	0x3d252eb2	0.040327735
180	0x3dac086d	0.084000446
181	0xbc6e0cca	-0.014529416
182	0xbcc987fd	-0.024600977
183	0x3c2376ca	0.009977052
184	0x3ccd14b4	0.025034286
185	0x3c207f52	0.0097959805
186	0xbd52b32f	-0.051440414
187	0xbc87d106	-0.016579162
188	0x3ba838ea	0.005133738
189	0xbe3338e2	-0.17502168
190	0xbdd49856	-0.10380618
191	0xbd211591	-0.039327208
192	0xbc150f87	-0.00909794
193	0xbc684f4c	-0.014179062
194	0xbc741f55	-0.014900048
195	0xbe4e45cf	-0.20143817
196	0xbe69af93	-0.22820882
197	0xbe43c3fb	-0.1911773
198	0x3c3f223d	0.011665878
199	0xbc50a2e4	-0.012734149
200	0xbd5eca26	-0.054392003
201	0x3e0cbc2d	0.13743658
202	0x3d7e2bc1	0.062053446
203	0xbccea568	-0.025225356
204	0x3dc380f4	0.0954608
205	0x3d1dafc2	0.038497694
206	0xbd0595f1	-0.0326137
207	0xbe948511	-0.29007772
208	0xbe003d46	-0.12523374
209	0xbe1acb22	-0.15116552
210	0xbdf9e417	-0.12201708
211	0xbdd63910	-0.104601026
212	0xbd9a4c16	-0.075340435
213	0xbe4fef57	-0.20306145
214	0xbdfbbe4c	-0.122921556
215	0xbe1c6bad	-0.1527545
216	0xbdd23cbf	-0.10265493
217	0x3cb14e3e	0.021643754
218	0x3c3271ab	0.010891358
219	0xbb03462d	-0.0020030842
220	0x3b3d2658	0.0028861966
221	0x3d2cb2b6	0.04216262
222	0xbd9c10e5	-0.0762041
223	0xbd8f3d64	-0.06994131
224	0xbd8ac631	-0.06776083
225	0xbdcebe6a	-0.10094912
226	0x3c95a622	0.018267695
227	0xbdebe1f5	-0.11517707
228	0xbdbfa74a	-0.0935808
229	0xbe38ecf8	-0.18059146
230	0xbdf03052	-0.11727966
231	0xbd547459	-0.05186877
232	0xbd59b13a	-0.053147532
233	0xbd9a43e9	-0.07532484
234	0x3d9d7ad6	0.07689445
235	0xbce96ea2	-0.028495137
236	0x3df71d35	0.12066118
237	0x3d1bc548	0.03802994
238	0x3d2115f2	0.03932757
239	0x3bd64125	0.0065385276
240	0x3d8effad	0.0698236
241	0xbdd6216e	-0.10455595
242	0xbc701e21	-0.014655621
243	0x3d8a0147	0.06738525
244	0xbd172e3e	-0.036909334
245	0x3c8c12c3	0.01709879
246	0x3d9e445a	0.07727881
247	0x3d31c9bf	0.04340529
248	0xbc40c115	-0.011764784
249	0xbe04cbfa	-0.12968436
250	0xbe0936ef	-0.13399862
251	0xbe25824c	-0.16162986
252	0xbcbd5902	-0.023113731
253	0x3cc73a80	0.024319887
254	0x3c3052de	0.010761945
255	0xbd273dca	-0.04083041

net._orig_mod.layer_2.0.0.net.3.bias f4 [32]
0	0x3d6b5d5b	0.057462078
1	0xbd23b896	-0.039970957
2	0x3ca0ef4d	0.019645358
3	0xbd4a7ef5	-0.049437482
4	0x3c97b3e8	0.018518403
5	0xbce00134	-0.027344324
6	0xbcd32377	-0.025773747
7	0x3bd1a1b8	0.006397452
8	0x3bbdf372	0.005796843
9	0x3d6a7f2f	0.057250198
10	0x3d40c680	0.047064304
11	0x3b63ecb7	0.0034778544
12	0x3ca41f51	0.020034464
13	0x3c463e9a	0.012099886
14	0xbc53daef	-0.012930616
15	0xbd2d5da2	-0.042325623
16	0xbd407426	-0.046985768
17	0x3ba61312	0.0050681913
18	0xbcbbdfda	-0.02293389
19	0x3d5b200d	0.053497363
20	0xbcd5ca10	-0.026097327
21	0x3c83ebc1	0.016103627
22	0xbce466ee	-0.027881112
23	0x3d6fb532	0.05852241
24	0x3cccae28	0.024985388
25	0x3d0521b4	0.032502845
26	0x3c860238	0.01635848
27	0xbc07299d	-0.0082496675
28	0xbca432d2	-0.020043764
29	0xbcda44f0	-0.0266442
30	0xbd4fe4a4	-0.050755158
31	0xbc2712e2	-0.010197373

net._orig_mod.layer_2.0.0.net.4.weight f4 [32]
0	0x3f4076e5	0.7518142
1	0x3f4e81e0	0.80666924
2	0x3f3cecf8	0.73799086
3	0x3f5cb22c	0.8620937
4	0x3f5dec1b	0.86688393
5	0x3f2a5357	0.66533417
6	0x3f3a5a49	0.72794014
7	0x3f4887cb	0.78332204
8	0x3f20427d	0.62601453
9	0x3f53c2cb	0.82719105
10	0x3f52b71b	0.82310647
11	0x3f497da3	0.7870733
12	0x3f44b9df	0.76846117
13	0x3f3aacfa	0.7292019
14	0x3f482bb0	0.7819166
15	0x3f62aa9e	0.8854159
16	0x3f19dfc7	0.6010708
17	0x3f4a680e	0.79065025
18	0x3f5e28b8	0.8678088
19	0x3f4f742c	0.8103664
20	0x3f2b448d	0.66901475
21	0x3f4c76b8	0.7986865
22	0x3f3d118b	0.73854893
23	0x3f35d51e	0.71028316
24	0x3f3e65d6	0.7437414
25	0x3f50969a	0.814798
26	0x3f402855	0.7506154
27	0x3f57217a	0.84035456
28	0x3f519030	0.8186064
29	0x3f1ea6ec	0.6197345
30	0x3f3525b3	0.7076065
31	0x3f45c930	0.7726011

net._orig_mod.layer_2.0.0.net.4.bias f4 [32]
0	0xbd7be080	-0.061493397
1	0x3b25d4e7	0.0025303902
2	0xbd840296	-0.06445806
3	0xbb9b4f08	-0.004739646
4	0xbde46529	-0.11152107
5	0xbcb0794f	-0.02154222
6	0x3c26b60f	0.010175242
7	0xbd46edd2	-0.048566647
8	0xbd10d494	-0.03535898
9	0xbd6bcce9	-0.057568464
10	0xbd6d16b2	-0.057882972
11	0xbd78421b	-0.060609918
12	0xba302bd8	-0.00067204004
13	0xbc9b2959	-0.018940615
14	0xbd8e10cf	-0.069368
15	0xbdfda53d	-0.12385032
16	0x3c8f7ea3	0.01751644
17	0xbda21944	-0.07914975
18	0xbd89a60f	-0.06721126
19	0xbdc040e2	-0.093873754
20	0xbd60114b	-0.05470399
21	0xbcf3287a	-0.029682387
22	0x3c16093e	0.009157477
23	0xbc9d7d74	-0.01922486
24	0x3c4513bc	0.012028631
25	0xbe0d83c4	-0.13819796
26	0xbc77eb6c	-0.015131813
27	0x3b04fe7d	0.0020293288
28	0xbd9eb03e	-0.07748459
29	0xbb94b898	-0.004538607
30	0xbd4e4e7d	-0.05036782
31	0xbd7660f1	-0.060151044

net._orig_mod.layer_2.0.0.net.4.running_mean f4 [32]
0	0xbfb8ee3d	-1.4447705
1	0x3e20c177	0.15698801
2	0x3f08d035	0.534427
3	0xbe34baea	-0.17649427
4	0xbf00c6bc	-0.50303245
5	0xbfe785fc	-1.8087764
6	0xbf73d21c	-0.95242476
7	0xbeb3a4b1	-0.35086587
8	0x3c21c30b	0.009873162
9	0xbf837430	-1.0269833
10	0xbf21019c	-0.6289308
11	0xbe83b7db	-0.25726208
12	0xc01b92c9	-2.430834
13	0xbfaf4932	-1.3694212
14	0xbdffaa39	-0.12483639
15	0xbf1592bb	-0.5842702
16	0xbf2bf8f4	-0.6717675
17	0xbf21cedf	-0.63206285
18	0xbf88c1f6	-1.0684192
19	0xbe82a791	-0.25518468
20	0xbf353710	-0.70787144
21	0xbfb7a080	-1.4345856
22	0xbe1b9f9b	-0.15197603
23	0xbf939557	-1.152995
24	0xbf24f94e	-0.6444291
25	0xbf701e92	-0.93796647
26	0xbfcb5108	-1.5884104
27	0xbef30a05	-0.47468582
28	0xbf233328	-0.63749933
29	0xbf4a16c9	-0.7894102
30	0xbfebff49	-1.8437282
31	0xbf604e32	-0.87619317

net._orig_mod.layer_2.0.0.net.4.running_var f4 [32]
0	0x428ba34f	69.81896
1	0x42b97d64	92.7449
2	0x424dc2e6	51.44033
3	0x4293dd5c	73.93234
4	0x4171e9f7	15.11962
5	0x4296fbd7	75.491875
6	0x42b8ef16	92.466965
7	0x41e696bd	28.823603
8	0x41d6f726	26.870678
9	0x41ff25fd	31.893549
10	0x425fd6a0	55.959595
11	0x425bf4d6	54.989098
12	0x426d6521	59.34876
13	0x4273186d	60.773853
14	0x4184b15a	16.586597
15	0x41464880	12.3927
16	0x426ad923	58.712048
17	0x42250cd5	41.26253
18	0x41c7ca82	24.97388
19	0x426cfb59	59.245457
20	0x429a5a4a	77.176346
21	0x428f1ee3	71.560326
22	0x42340f7b	45.015118
23	0x42e53c2b	114.617516
24	0x42cf1f24	103.56082
25	0x40e3f4a4	7.1236134
26	0x42221c6c	40.527756
27	0x420d4092	35.313057
28	0x415bd9b6	13.740652
29	0x423d77bc	47.36693
30	0x428980a6	68.75127
31	0x41e84e36	29.038189

net._orig_mod.layer_2.0.1.net.0.weight f4 [32, 32, 3, 3]
0	0x3c91b7fc	0.017787926
1	0xbdbfdf4a	-0.09368761
2	0xbe0002bf	-0.12501048
3	0xbdc57981	-0.09642316
4	0x3d4e65a5	0.050389905
5	0xbc2ed8e7	-0.010671831
6	0xbdf88202	-0.12134172
7	0xbdbe780c	-0.09300241
8	0xbe2c177e	-0.16805837
9	0x3e1280f9	0.14307012
10	0x3e4937e9	0.19650234
11	0xbd846697	-0.0646488
12	0x3d512996	0.05106505
13	0x3dd94d98	0.10610503
14	0xbdafe64b	-0.08588847
15	0xbe34931d	-0.17634244
16	0x3e40b56d	0.18819208
17	0x3df7a0cd	0.12091217
18	0x3e537c02	0.20652774
19	0x3e62ca4c	0.22147483
20	0x3ee8cf37	0.45470592
21	0xbd4dfb93	-0.050288748
22	0xbe05db06	-0.13071832
23	0x3dd482e2	0.103765264
24	0x3ab23bf0	0.0013598185
25	0x3d7b44f2	0.06134505
26	0x3dbafb7b	0.09129997
27	0xbdfb8ab2	-0.122823134
28	0xbc0ec796	-0.008714577
29	0x3df24817	0.11830156
30	0xbe6fd629	-0.2342154
31	0xbe002070	-0.12512374
32	0xbd9da6a4	-0.076978
33	0x3cc211a1	0.023690047
34	0xbd05ee38	-0.032697886
35	0xbe56cf53	-0.20977525
36	0x3d3b2d10	0.04569727
37	0x3cfbe75b	0.030749967
38	0xbbeba6c3	-0.0071915104
39	0x3d1e3bed	0.03863137
40	0x3cc6915a	0.02423923
41	0x3cdade07	0.026717199
42	0x3be4fd0d	0.006988174
43	0x3c1ffbcb	0.009764622
44	0xbd47e098	-0.048798174
45	0x3e41d030	0.18927073
46	0x3cdda90f	0.027058152
47	0xbdd6d648	-0.1049009
48	0x3e11e209	0.14246382
49	0x3dfd0fbb	0.12356516
50	0x3d7073a1	0.058704022
51	0xbd504298	-0.05084476
52	0x3d2507fb	0.040290814
53	0x3e02b151	0.12762953
54	0x3e3d54e8	0.1848942
55	0x3cd5cb9c	0.026098065
56	0x3d84c798	0.06483382
57	0x3e2e2d11	0.17009379
58	0x3c3a1803	0.011358264
59	0x3d60ce39	0.05488417
60	0x3e317dee	0.17333195
61	0x3e1fc486	0.15602311
62	0x3de5c20c	0.11218652
63	0xbdecb71e	-0.11558364
64	0xbe668443	-0.22511391
65	0xbe88f827	-0.26751825
66	0xbd503fef	-0.05084222
67	0xbda5a020	-0.08087182
68	0x3cde759c	0.02715569
69	0x3d891171	0.0669278
70	0x3d3150b7	0.043289866
71	0x3b76475c	0.0037579155
72	0xbd2b2c57	-0.041790333
73	0xbd8c08fc	-0.06837651
74	0xbdca1004	-0.09866336
75	0x3d6f21f1	0.05838198
76	0xbb027dc4	-0.0019911388
77	0x3d6b8b49	0.05750588
78	0x3c72a7cc	0.014810514
79	0x3d6302c7	0.05542257
80	0x3ab4e41e	0.0013800894
81	0xbe164bed	-0.14677401
82	0xbdd28b35	-0.10280458
83	0xbc634d17	-0.01387336
84	0x3d285a35	0.041101653
85	0x3d888e5c	0.06667778
86	0x3d12bc4c	0.035824105
87	0xbe5184db	-0.20460837
88	0xbde13094	-0.10995594
89	0xbe05ece5	-0.1307865
90	0x3e5b3475	0.2140673
91	0xbddb52a3	-0.10709121
92	0xbd1f9020	-0.038955808
93	0x3d30fd74	0.04321046
94	0x3d0a7de1	0.033811454
95	0x3bc7849f	0.0060888077
96	0x3dcf1ce4	0.10112932
97	0x3cc49944	0.023998864
98	0xbd319910	-0.043358862
99	0xbceeb620	-0.029139578
100	0xbd3c627d	-0.045992363
101	0x3ac16ffe	0.0014758108
102	0x3e471b61	0.19444038
103	0x3d1c9649	0.03822926
104	0x3cb24c16	0.021764796
105	0xbe8a6934	-0.2703339
106	0xbe3144da	-0.17311421
107	0xbe494c3b	-0.19657986
108	0x3dc825db	0.09772845
109	0xbe2c225a	-0.16809979
110	0xbe4b7bc4	-0.19871432
111	0x3d1a255c	0.037633285
112	0xbe0aca0c	-0.13553637
113	0xbe3ff852	-0.1874707
114	0x3e5aa55d	0.21352144
115	0x3dde97a6	0.108687684
116	0xbd7b5050	-0.06135589
117	0x3ce75ec8	0.028243437
118	0x3e5bbe91	0.21459414
119	0xbe373b02	-0.17893603
120	0xbddf29c0	-0.10896635
121	0x3d87394f	0.066027276
122	0x3ca18a67	0.019719316
123	0x3d7a5723	0.061118256
124	0x3daa4828	0.08314544
125	0x3e2a5bb2	0.16636541
126	0xbe094752	-0.13406113
127	0x3d12f2fe	0.035876267
128	0xbd57c245	-0.052675504
129	0x3ceb1b4b	0.028699538
130	0xbce86d92	-0.02837256
131	0xbd02729a	-0.031847574
132	0x3d016bff	0.031597134
133	0xbd93b0d1	-0.072114594
134	0xbdb3af5b	-0.08773681
135	0xbd796fb2	-0.060897537
136	0xbcd20c59	-0.025640653
137	0xbdcc9531	-0.099893935
138	0xbd0cac6c	-0.03434412
139	0xbd3c1716	-0.045920454
140	0xbbc5c606	-0.006035569
141	0xbdada630	-0.084789634
142	0xbda5644e	-0.08075772
143	0xbe269125	-0.16266306
144	0xbeb5ce8f	-0.35509154
145	0xbdc0c141	-0.0941186
146	0xbeb9cbb1	-0.36288217
147	0xbdbb8bd8	-0.091575325
148	0x3e0cd7e1	0.13754226
149	0x3e16f4c9	0.14741816
150	0xbdf4a134	-0.119448096
151	0xbea89c98	-0.32931972
152	0xbd45c401	-0.048282627
153	0xbe9acd97	-0.30234978
154	0x3d54631b	0.051852327
155	0xbc68c657	-0.014207444
156	0xbd57cf40	-0.052687883
157	0x3b0bd242	0.002133504
158	0x3e1b2c87	0.15153705
159	0xbe991fdf	-0.29907128
160	0x3b0f22ab	0.0021840732
161	0x3d949561	0.07255054
162	0x3e115ed5	0.14196332
163	0xbda4e07c	-0.080506295
164	0x3ac80642	0.0015260654
165	0xba152611	-0.0005689571
166	0xbd2b0a93	-0.04175813
167	0x3d70866d	0.05872195
168	0xbde344a6	-0.11097078
169	0xbd9a3bee	-0.07530962
170	0xbc8b9fc5	-0.017043957
171	0x3c29eab1	0.010370896
172	0x3da859c0	0.082202435
173	0x3d425174	0.04744096
174	0x3d422283	0.047396194
175	0x3d0ee30a	0.03488449
176	0x3e2fb3d8	0.17158449
177	0x3cb38db6	0.021918159
178	0x3bbccf60	0.0057620257
179	0xbd0b1e4b	-0.033964437
180	0xbe3d8c9d	-0.18510671
181	0xbd0f7041	-0.035019163
182	0xbdaa1fdb	-0.08306857
183	0xbc9d9428	-0.019235685
184	0xbe0e950f	-0.13924049
185	0xbe67f142	-0.22650626
186	0xbd9e5c2d	-0.07732425
187	0xbcf7e30c	-0.030259632
188	0xbd921dd5	-0.07134596
189	0xbed126a6	-0.408498
190	0xbe142c47	-0.14470015
191	0xbd93a614	-0.07209411
192	0xbe0e6fe0	-0.13909864
193	0xbd8024d1	-0.06257022
194	0x3ca18c90	0.019720346
195	0xbdeb052e	-0.11475597
196	0xbde8592e	-0.11345135
197	0xbe1ee908	-0.15518582
198	0xbdbc0fd1	-0.09182704
199	0xbe39df43	-0.18151574
200	0xbdc59765	-0.09648017
201	0xbdcc8b86	-0.099875495
202	0x3c83e838	0.016101941
203	0x3d2276cf	0.039664086
204	0xbe379ce0	-0.17930937
205	0xbdeb4736	-0.11488192
206	0xbcbb3bb4	-0.022855617
207	0x3c62412e	0.013809485
208	0x3dc5e121	0.096620806
209	0x3ca1aaa3	0.019734686
210	0x3e6cba9b	0.2311806
211	0x3d0750d7	0.03303608
212	0xbdaa903a	-0.0832829
213	0xbd96030e	-0.073248014
214	0xbd91af97	-0.07113569
215	0xbe801825	-0.2501842
216	0x3bae71bb	0.0053236163
217	0x3dbee12c	0.09320292
218	0x3b62bf61	0.0034598934
219	0xbce09925	-0.027416775
220	0x3d025faa	0.031829514
221	0x3d916b35	0.07100526
222	0xbc3d8097	-0.011566303
223	0x3c722d16	0.014781257
224	0x3db42502	0.08796121
225	0xbe12eabf	-0.14347361
226	0xbd2c4e07	-0.0420666
227	0xbdf89b48	-0.121389925
228	0x3d8e3614	0.06943908
229	0x3c8868d7	0.016651554
230	0x3d017329	0.031603966
231	0xbdfd92f8	-0.12381548
232	0xbd8dd969	-0.06926233
233	0xbe479d32	-0.19493559
234	0x3e08c816	0.13357577
235	0x3cd5c414	0.026094474
236	0x3d96c62d	0.07362018
237	0xbdd2f788	-0.10301119
238	0x3c97d584	0.01853443
239	0x3b02366c	0.0019868864
240	0x3d375527	0.044758942
241	0x3d09238c	0.033481166
242	0x3dad5f30	0.08465421
243	0xbdbd6d8b	-0.09249409
244	0xbce951c4	-0.028481372
245	0xbd058bf9	-0.03260419
246	0xbd77683c	-0.06040214
247	0xbe3a924f	-0.18219875
248	0xbdc22187	-0.09479051
249	0xbcb1071e	-0.021609839
250	0x3be09645	0.006853851
251	0xbe227fc8	-0.15869057
252	0xbdb39bc1	-0.08769942
253	0x3d6aba3a	0.057306506
254	0x3bc80928	0.006104607
255	0xbce8628c	-0.028367303

net._orig_mod.layer_2.0.1.net.0.bias f4 [32]
0	0x3d449464	0.04799308
1	0x3d0170f2	0.031601854
2	0xbcc7865a	-0.024356056
3	0x3a936de1	0.0011247956
4	0xbcf13b44	-0.029447205
5	0x3d39c317	0.045352068
6	0x3c8f8b25	0.017522404
7	0xbd252121	-0.040314797
8	0x3d596d33	0.053082656
9	0x3d0b36fd	0.033987988
10	0x3b3431bc	0.0027495464
11	0xbd2cafa2	-0.042159684
12	0xbced10cc	-0.028938673
13	0xbd59ea2c	-0.05320184
14	0xbd1cfffe	-0.03833007
15	0x3d652867	0.055946734
16	0xbb600ca7	-0.003418723
17	0x3d4ec9fd	0.0504856
18	0x3cf962f2	0.030442689
19	0x3d5b8d31	0.053601447
20	0x3ca0ae45	0.019614348
21	0xbd0a0a2b	-0.033701103
22	0x3d5f20da	0.05447469
23	0xbd4c3a51	-0.049860302
24	0x3c853f9f	0.016265688
25	0x3c7e4e69	0.015521624
26	0x3d19806d	0.037475992
27	0xbd2dd55b	-0.0424398
28	0x3ca9cccf	0.020727543
29	0x3bcf4955	0.0063258805
30	0xbd30ab83	-0.043132316
31	0x3c17bc69	0.009261229

net._orig_mod.layer_2.0.1.net.1.weight f4 [32]
0	0x3f7088a5	0.93958503
1	0x3f7fcf29	0.99925476
2	0x3f67301e	0.90307796
3	0x3f80f54f	1.0074862
4	0x3f86e3e6	1.0538299
5	0x3fac31ca	1.3452694
6	0x3f883687	1.064164
7	0x3f631b94	0.88713956
8	0x3f766694	0.9625027
9	0x3f6dd851	0.929082
10	0x3f82211e	1.0166357
11	0x3f8cce0c	1.100038
12	0x3f8547b1	1.0412503
13	0x3fa5469a	1.2912171
14	0x3f67ad25	0.9049857
15	0x3f824d87	1.017991
16	0x3f805df3	1.0028671
17	0x3f893ee5	1.0722319
18	0x3f851d13	1.0399498
19	0x3f82c50e	1.0216386
20	0x3f8839c2	1.0642626
21	0x3f739d94	0.9516232
22	0x3f8264ea	1.0187047
23	0x3f731540	0.949543
24	0x3f83e40e	1.0303972
25	0x3f83ff2d	1.0312248
26	0x3f819592	1.012377
27	0x3f715e7b	0.9428479
28	0x3f80cf9f	1.0063361
29	0x3f88f175	1.0698687
30	0x3f70b768	0.94029856
31	0x3f9c9b63	1.223492

net._orig_mod.layer_2.0.1.net.1.bias f4 [32]
0	0xbdb26f74	-0.08712664
1	0xbe01f5c3	-0.12691407
2	0x3e876e46	0.2645132
3	0x3d2c8592	0.04211957
4	0xbdc79138	-0.09744495
5	0xbea30519	-0.31839827
6	0xbe2033c4	-0.15644747
7	0x3db7e6ff	0.08979606
8	0xbe0cc8e9	-0.13748516
9	0xbd391eb8	-0.04519531
10	0xbde32bf8	-0.11092371
11	0xbd8d1543	-0.06888821
12	0xbceee4ad	-0.029161775
13	0xbd66ea19	-0.056375597
14	0xbe0ff288	-0.14057362
15	0x3b844eaa	0.004037698
16	0xbdf30a97	-0.11867254
17	0xbd5e3dd1	-0.05425817
18	0x3c599be3	0.013281795
19	0xbe53cd6c	-0.20683831
20	0x3d309d64	0.04311885
21	0xbe3433f8	-0.1759795
22	0x3cbaebd6	0.022817533
23	0x3bd14f51	0.006387629
24	0x3bd0f6e9	0.0063770902
25	0xbdd791f5	-0.10525886
26	0xbe2e27d8	-0.17007387
27	0x3ee4f9eb	0.44721922
28	0xbe137cab	-0.14403026
29	0xbd1521d0	-0.0364092
30	0xbca0e712	-0.019641433
31	0xbe86be18	-0.26316905

net._orig_mod.layer_2.0.1.net.1.running_mean f4 [32]
0	0xbeeffc63	-0.46872243
1	0xbedc0450	-0.4297204
2	0xbf233be4	-0.6376326
3	0x3db912c9	0.09036786
4	0xbf9c4ea2	-1.2211497
5	0x3efa6f68	0.4891312
6	0xbdbfbb0c	-0.09361848
7	0xbe19c4a4	-0.15016419
8	0xbd9a6820	-0.075393915
9	0xbf1a5a20	-0.6029377
10	0x3e7403ef	0.23829626
11	0xbf2826c9	-0.6568418
12	0x3d221ce7	0.039578345
13	0x3e7925e3	0.24330859
14	0xbf289d78	-0.6586528
15	0x3ccb10c5	0.02478827
16	0x3f1789e3	0.59194773
17	0xbdc42006	-0.095764205
18	0x3f0326ea	0.51231253
19	0xbded8609	-0.11597831
20	0x3ebe32d6	0.3714816
21	0xbf40c6b5	-0.753032
22	0xbeffc4ab	-0.49954733
23	0xbf5eda85	-0.87052184
24	0xbf7f008d	-0.99610215
25	0xbebdf72f	-0.3710265
26	0xbcbeeb6a	-0.023305614
27	0xbf28faf9	-0.66007954
28	0xbca72add	-0.020406181
29	0x3f39b2bd	0.7253836
30	0x3e82e12f	0.25562426
31	0x3f292967	0.660788

net._orig_mod.layer_2.0.1.net.1.running_var f4 [32]
0	0x3d820b93	0.06349864
1	0x3e01ace9	0.12663616
2	0x3e6df7a7	0.23239003
3	0x3e1e29bf	0.15445612
4	0x3e34f32e	0.1767089
5	0x3da5d9e4	0.080982
6	0x3dc9a943	0.09846737
7	0x3e6462e6	0.22303352
8	0x3d8b72dc	0.06809017
9	0x3e6738c8	0.22580254
10	0x3e798ce3	0.2437015
11	0x3e3c2aee	0.18375751
12	0x3e1f2f94	0.15545493
13	0x3dd72974	0.105059534
14	0x3e3d5f81	0.18493463
15	0x3e43282c	0.19058293
16	0x3e807183	0.25086603
17	0x3e047c4c	0.1293804
18	0x3e2c950b	0.1685373
19	0x3e683af6	0.22678742
20	0x3e4d14f3	0.20027523
21	0x3d81a9f9	0.06331248
22	0x3e8e5bd2	0.27804428
23	0x3dd19edc	0.10235378
24	0x3e4cd2f2	0.20002344
25	0x3e925fb4	0.2858864
26	0x3e418a93	0.18900518
27	0x3e82b0c7	0.25525495
28	0x3db6df4a	0.08929308
29	0x3e677b4d	0.2260563
30	0x3e0f3602	0.13985446
31	0x3e74d6be	0.23910043
