logs/train/runs/pnn/checkpoints/epoch=49-val_psnr=28.6618-val_ssim=0.7898.ckpt (torch, 977736 bytes, 18 tensors)

net._orig_mod.net.0.weight f4 [64, 5, 9, 9]
000000 89 c9 5d 3c a5 ed c8 3c 3c f5 ed bc e7 cb f7 3c
       0.013536819 0.02452738 -0.0290476 0.030248595
000010 75 a5 bf bd 1e 21 9d bd b0 42 df bd 4b 27 42 bd
       -0.0935773 -0.07672332 -0.109013915 -0.047400754
000020 ac a0 b9 bc 73 40 5a bd 7b d9 d2 3c 58 c6 94 bc
       -0.022659622 -0.05328412 0.025738468 -0.018160984
000030 6f c6 aa 3a cf 30 b4 bd f8 86 89 bd d0 b4 b0 bd
       0.0013029109 -0.08798372 -0.06715196 -0.08628237
000040 33 70 c8 bc 88 55 26 bd 69 13 66 bd 68 21 ed bc
       -0.024467563 -0.040608913 -0.056170855 -0.028946593
000050 fa 58 a5 bd 70 84 9d bd 20 93 0b be c6 61 8d bd
       -0.080736116 -0.07691276 -0.13630342 -0.069034144
000060 71 ad f0 bd 90 b0 9a bd bb 08 41 bd 2f 03 96 bd
       -0.11751831 -0.07553208 -0.047127467 -0.07324826
000070 6d f9 53 bd 5c c3 fa bd f0 ae 26 bd 00 92 29 be
       -0.051751543 -0.12244293 -0.040694177 -0.16559601
000080 b9 41 80 bd 79 fb 7a bd f4 5f 5e bd fe 42 65 3c
       -0.062625356 -0.06127498 -0.054290727 0.013993023
000090 17 78 01 bd 1f 75 3a bc 0b 1f 71 bd 4d 00 b1 bd
       -0.031608667 -0.011380463 -0.058867496 -0.086426355
0000a0 98 46 c8 bd 0a 8c cb bd 85 64 08 bd 03 75 a2 3c
       -0.0977909 -0.0993882 -0.033298988 0.019831186
0000b0 6c ce b6 3c 9e a5 2b bd d3 47 4f 3b d1 68 b4 bc
       0.022315226 -0.04190599 0.0031628504 -0.022022637
0000c0 8f 1a d9 bb db 48 01 be 82 73 00 be 54 cb 95 bd
       -0.0066254805 -0.12625448 -0.12544063 -0.073141724
0000d0 76 ba 94 bd c0 4d 80 3c ff ac 63 3c 4d b6 c3 3c
       -0.07262127 0.015662074 0.013896226 0.023890639
0000e0 40 c3 b7 3c 20 56 66 3c 17 eb b2 bc a5 26 b3 bd
       0.02243197 0.01405862 -0.021840615 -0.08747605
0000f0 a5 c9 2a bd 34 51 96 bd 45 27 ca bc cb a0 33 bb
       -0.04169621 -0.07339707 -0.024676928 -0.0027409072
000100 16 a5 2c 3d 1c 79 e4 3c 27 72 c5 3d aa 30 64 bd
       0.042149626 0.02788978 0.096409135 -0.055710472
000110 20 ce 78 bd 42 a4 8e bd 0a b6 85 bb 8d 34 29 bd
       -0.06074345 -0.069649234 -0.0040805386 -0.041309882
000120 d8 5e 88 3d 7b 31 30 bb 7c 25 d2 3b 85 2f 2a 3d
       0.06658715 -0.0026884961 0.00641316 0.041549224
000130 f1 cc 17 bd 46 8d b9 b9 05 37 cb bc ec 4c aa bc
       -0.03706068 -0.00035391207 -0.024806509 -0.020788632
000140 91 0c d1 bd 27 b6 b8 bd 2e a2 b5 bc 44 5d 90 bd
       -0.10207475 -0.09019118 -0.02217206 -0.07049039
000150 0c 0d f8 bc a7 b8 26 bd e2 a5 5f bc 3e 64 b3 bd
       -0.030279659 -0.040703442 -0.013650389 -0.08759354
000160 df 54 96 bd d8 e3 e6 bc 4c 78 13 bd 9a 5f 75 bd
       -0.073404066 -0.028184816 -0.036003396 -0.059905626
000170 5a bb f0 bc df 5b 3e bd 69 6e 93 bd 98 a0 8f bd
       -0.029386211 -0.046474334 -0.071987934 -0.07013053
000180 a9 21 44 3b 4f 54 55 bd 9c 10 37 bd 28 89 e6 bd
       0.002992729 -0.052082356 -0.044693574 -0.11256629
000190 d3 5d d1 bd 33 e4 a3 bd 9c b6 01 be e0 3b be bd
       -0.10222974 -0.0800251 -0.12667316 -0.09288764
0001a0 f3 18 5d bd d8 e5 9d bd ff c0 8e bd db a9 2e bd
       -0.05397887 -0.07709855 -0.06970405 -0.042642456
0001b0 ef e5 f7 bd 21 6e fd bd bb e6 7f bd c9 12 05 be
       -0.12104403 -0.12374521 -0.0624759 -0.12995447
0001c0 49 e9 5e bd e7 de d8 bd 05 04 94 bd 70 cc 0c bd
       -0.054421697 -0.1058939 -0.07227329 -0.034374654
0001d0 a6 66 92 3b b8 4d fb bd 9c 08 eb bd bf f5 0e be
       0.004467803 -0.12270683 -0.114762515 -0.13960932
0001e0 10 bb 06 be 90 e3 b3 bd 8d e2 70 bd 9e 94 8a bd
       -0.13157296 -0.087836385 -0.058809806 -0.06766628
0001f0 10 d2 3e bd 0b 1b ed bc e9 14 9c bd 25 55 da bd
       -0.04658705 -0.02894356 -0.07621176 -0.10660771
000200 c3 05 13 bd 9c 71 d7 bd bc 10 c3 bc e3 cf 2b bd
       -0.035894167 -0.10519716 -0.02381169 -0.041946303
000210 90 ca b0 bd 48 86 41 3b a4 cf 22 bd 55 21 6d bd
       -0.08632386 0.00295295 -0.039748803 -0.057893116
000220 b3 92 a3 bd ee 1e b9 bd 10 95 13 bd 3f e0 59 bd
       -0.07986965 -0.090391025 -0.03603083 -0.053192373
000230 a6 de c7 bc 72 3f ae bd a6 4f e7 bb b6 58 aa bd
       -0.02439816 -0.08508195 -0.0070590554 -0.083177015
000240 92 6c 0a bd de d9 d3 bb 8c 8f 5e 3c ac 24 e1 3c
       -0.033794947 -0.006465181 0.013584029 0.027483307
000250 cf a4 d9 3c 50 a9 93 bd ab 1e 12 bd c6 1f a7 bd
       0.026567845 -0.07210028 -0.03567378 -0.08160357
000260 8a b1 99 bd 48 5e 7c bd f0 8b 11 3d 47 b1 12 bd
       -0.07504566 -0.06161335 0.035533845 -0.035813596
000270 f4 e2 0e 3d e1 34 44 3c 8b 80 6a bc 01 63 ad bd
       0.034884408 0.011975498 -0.014312874 -0.08466149
000280 1e fe 09 bd 29 17 a5 bd 96 82 3b bd 3d 59 bc bd
       -0.03368961 -0.08061058 -0.045778833 -0.09196708
000290 37 16 0d bd 60 05 99 bd 7a 11 6b bd 3b 10 55 bb
       -0.034445014 -0.07471728 -0.057389714 -0.0032510895
0002a0 dc 14 21 bd 75 02 9a bd 78 ed 8a bd 85 f2 54 bd
       -0.039326534 -0.0752 -0.06783575 -0.051989097
0002b0 95 31 dd bc 76 35 ad bd 9b a3 fb bd bd e3 8a bd
       -0.027001182 -0.084574625 -0.12287065 -0.06781719
0002c0 92 63 bd bd 15 27 06 bd 34 71 84 ba 32 b3 9c bd
       -0.09247507 -0.032752115 -0.0010104538 -0.07651366
0002d0 01 3e 82 bd 27 cc 81 bd a8 92 d4 bd 14 38 22 be
       -0.063594826 -0.06337767 -0.10379535 -0.15841705
0002e0 44 ad 5a bd be 0f 43 bd b8 1b 1e bd dd cc 39 bd
       -0.053387895 -0.047622435 -0.038600653 -0.04536139
0002f0 04 2b 0f bd c7 60 b9 bd 9c f7 fc bd 8b e9 1d be
       -0.034953132 -0.09051662 -0.12351915 -0.15421121
000300 7c 3e 09 be 72 92 62 bd 54 d4 b5 bd f9 b4 8f bd
       -0.13402742 -0.055315442 -0.08878389 -0.0701694
000310 ed 73 01 bd 09 a4 8f bc f8 67 bb bd 9e 02 dc bd
       -0.031604696 -0.017534273 -0.0915069 -0.10742687
000320 41 4b 3f be b2 69 38 be c0 b0 70 bd f8 6d 82 bd
       -0.18681051 -0.1800907 -0.058762312 -0.06368631
000330 d8 72 73 bd 8d 79 79 bd f9 7a 3a bd 56 4e 04 be
       -0.059435695 -0.060906935 -0.045527432 -0.12920508
000340 26 1f e5 bd bf 2c bd bd b7 0e be bd 21 94 92 bd
       -0.11187582 -0.0923705 -0.092801504 -0.071571596
000350 e7 5d 01 be 52 72 c2 bd 9c 5d 66 bd 62 cf 01 3c
       -0.12633477 -0.09494461 -0.056241617 0.007922979
000360 b5 30 5f bd 3c 1d 9c bd 7d 37 44 bd f2 d1 c0 bd
       -0.05448981 -0.076227635 -0.04790448 -0.09415044
000370 25 12 c7 bd a9 f6 e2 bc 91 0d ab bd 36 36 8a bd
       -0.09720258 -0.027705507 -0.08352197 -0.06748621
000380 fa 3a dc bd 44 49 18 bc 6a 6e 24 3b 29 cf 6b bc
       -0.107534364 -0.009294812 0.0025090226 -0.014392653
000390 21 ce 85 bd e8 60 a9 bd f6 90 af bd 85 84 ab bc
       -0.065334566 -0.082704365 -0.08572571 -0.020937214
0003a0 2b 6e 34 bd 49 7f 0c bd 78 28 09 bc d0 26 ed bb
       -0.044050377 -0.034301076 -0.008371465 -0.007237293
0003b0 11 9f 3d bc ba d7 1f bd a3 ab 5c bd f8 24 a6 bd
       -0.011573569 -0.039024092 -0.053874623 -0.0811252
0003c0 d5 3e 22 bd 02 72 d5 bd 4b f8 d1 bd 4a e0 88 bd
       -0.039610703 -0.10422136 -0.10252436 -0.06683405
0003d0 7a 2a 2c bd 0d 31 6c bd fb fc d6 bd c9 b6 23 3d
       -0.042032696 -0.057663966 -0.10497471 0.03996924
0003e0 12 95 22 bd ad 72 1b bd 64 eb e8 bd 3f 4c 0f be
       -0.039692946 -0.03795116 -0.11373022 -0.1399393
0003f0 6e 05 d7 bc 34 cc 4a bd 5c d9 39 bd bb 50 11 be
       -0.026247706 -0.04951115 -0.045373306 -0.14190952

net._orig_mod.net.0.bias f4 [64]
000000 32 e4 35 bd 5f f4 4b bd 13 db 8b bd ae 09 69 bc
       -0.044407077 -0.049793597 -0.068288945 -0.014223499
000010 1d 5a bb 3d c8 f6 0a bd 1e 7f b8 3c ba 67 d2 bc
       0.09148047 -0.033926755 0.022521552 -0.025684226
000020 ec 83 19 bd cf 92 32 bc 7a 1f 22 3d 3a 1d 18 3e
       -0.037479326 -0.01089926 0.0395808 0.14854899
000030 8a 0a da bc 9e bc 0d bd 2b 62 60 bd dd d6 3e be
       -0.026616354 -0.034603707 -0.05478112 -0.18636651
000040 e6 0b 82 bc 0f 37 52 bd 0a e7 40 bc bb d1 10 bd
       -0.015874814 -0.05132204 -0.011773834 -0.035356265
000050 3d 49 8e bc c3 a5 77 bd 93 98 4c bd ea d7 99 3d
       -0.017368907 -0.060460817 -0.049950194 0.075118855
000060 5e 25 35 bd 94 0b 8c bd 0c 57 9b bc d4 39 62 bd
       -0.04422509 -0.06838146 -0.018962406 -0.05523093
000070 97 d1 1c bd 8a ba b2 bc bc f4 0c bd d7 96 60 3c
       -0.038285818 -0.021817464 -0.034413084 0.013707838
000080 ca 40 a4 bc 3e ba b1 bc 78 80 37 be a0 4e d9 bc
       -0.020050425 -0.021695253 -0.179201 -0.02652675
000090 e0 9f 98 bd 06 f4 42 bd df 7a d2 bd 4b 20 5d bc
       -0.07452369 -0.047596 -0.10277342 -0.013496469
0000a0 dd 99 ba bd 36 b6 df bc 90 34 02 bc 6e c4 ed bc
       -0.09111378 -0.027308565 -0.007947102 -0.029024329
0000b0 b2 f2 28 bc c8 7f 3b bd 90 66 75 bd 88 53 1d bd
       -0.010311769 -0.04577616 -0.059912264 -0.03840974
0000c0 f8 3d 4e bd 9f cd 0e bd 96 6c 78 bc ea ac 9b bc
       -0.050352067 -0.034864064 -0.015162608 -0.01900335
0000d0 7a 01 0c bd f0 a2 a9 bc c7 fc c8 bc 61 c1 1e bd
       -0.034181096 -0.020707577 -0.024534596 -0.03875864
0000e0 22 3a d3 bc 81 14 db bc 8e 52 bc bc 99 d3 3e 3d
       -0.025784556 -0.026743175 -0.022988584 0.046588514
0000f0 a3 fe e1 bc 9b 25 71 bd bc c7 d8 bc 34 7c 93 bc
       -0.02758724 -0.058873754 -0.026462428 -0.01800356

net._orig_mod.net.2.weight f4 [32, 64, 5, 5]
000000 63 b9 b7 3d 6e 7a 1e 3e 23 c9 1b bd 40 82 2e 3d
       0.089709066 0.1547639 -0.038033616 0.042604685
000010 dc 53 34 be 55 ef 09 be ca 0f 79 bb aa 8d 9b bc
       -0.17610115 -0.13470204 -0.0038003796 -0.01898845
000020 6e b1 d7 3d 10 77 0f 3e f5 0f 48 3c e7 37 a7 3d
       0.10531889 0.14010262 0.012210836 0.081649594
000030 7c 82 4b 3d 0e 5f 59 3d 31 91 37 3d c4 5d a9 3c
       0.049684986 0.053069167 0.0448162 0.020674594
000040 3a 02 3a 3c 88 36 e9 bb 6a af 52 3d 50 36 a4 3c
       0.01135307 -0.0071170963 0.05143682 0.02004543
000050 26 d3 b8 bc 31 b1 bc 3d 15 fc 49 3c cc 93 90 3d
       -0.02256162 0.09213484 0.012328167 0.0705944
000060 0a 70 3b 3d 80 aa c8 3d ed 02 0e 3d 44 ab 48 bd
       0.045761146 0.09798145 0.03467076 -0.048991457
000070 88 3d 93 bd 06 8a 61 bd 33 c7 da bc 35 91 37 bd
       -0.071894705 -0.05506327 -0.026706314 -0.044816215
000080 92 05 8d bd 14 10 1f bc f5 54 dd bc e2 2a 1b bd
       -0.06885828 -0.009708423 -0.02701805 -0.037882693
000090 64 26 97 3c 19 b1 18 bd 8b d3 ef bc 85 8e d6 bc
       0.018450923 -0.03727827 -0.029275676 -0.026191005
0000a0 f9 5d 5a bb 57 e9 fe 3c 63 9c 6f bc 0a f8 e2 3b
       -0.0033320172 0.031117124 -0.014624688 0.006926541
0000b0 7c 3a f6 ba 4f 44 48 bd 08 d6 f2 3c 4d 0c 11 3c
       -0.001878574 -0.04889327 0.029643074 0.00885303
0000c0 4a d9 95 3d 85 a3 89 3d 02 ff 1d b9 3c 7f b0 3c
       0.07316835 0.06720642 -0.00015067685 0.021545045
0000d0 74 13 28 bc 69 9b f8 bb 3a 74 a6 bb ae e1 a9 3a
       -0.010258544 -0.0075868857 -0.0050797733 0.0012960935
0000e0 9e 11 42 bc 54 82 d9 3c 8d 17 07 3d 7b a1 f5 bb
       -0.011845021 0.026551403 0.032981444 -0.0074960566
0000f0 3c d9 31 bc 0b aa 92 3b 17 2b 01 3d e4 e1 99 3c
       -0.010855015 0.004475837 0.031535234 0.01878447
000100 1a 5d 5b 3c 74 ee 12 3d 93 da 02 3d 69 36 c4 3c
       0.013388896 0.035871938 0.03194673 0.023951726
000110 76 36 44 ba da 63 b9 3b 28 a8 01 3c 39 0e f8 3b
       -0.0007484922 0.005657655 0.007913627 0.007570055
000120 2e c2 92 3c 55 ec e2 3c 3e be 09 bb db b6 51 bc
       0.017914858 0.027700583 -0.0021017934 -0.012799944
000130 f0 1b 27 bc 4d f0 95 3c fe 56 90 bb 8b df c5 3c
       -0.010199532 0.01830306 -0.0044049015 0.024154445
000140 04 56 a0 3c 16 94 9d 3c 26 c4 10 3b 74 27 c7 3c
       0.019572265 0.019235652 0.002208957 0.024310805
000150 d4 ab ed 3c 86 c1 a1 3c 2b 76 58 3c 58 c4 b7 3c
       0.029012598 0.0197456 0.013211767 0.022432491
000160 65 68 6f 3c 2e a3 92 3c e0 22 b2 3c de 8d 0b 3d
       0.014612292 0.017900076 0.021745145 0.034070842
000170 1d 8c f5 3b 64 d7 c7 3c 14 05 fe 3c 1f d1 0a bc
       0.0074935094 0.024394698 0.03100828 -0.00847271
000180 8a 5a 38 3c 19 7d 16 bc e1 55 e2 bb d9 c0 e2 3c
       0.011252055 -0.009185099 -0.00690721 0.027679848
000190 8e 0d 77 3d 9a 46 02 3c 67 44 15 bd 3a cd 45 bd
       0.06031566 0.007951403 -0.036442187 -0.048291422
0001a0 05 45 df bc ab e1 58 bd 2e 57 7d bd 5c c1 03 3c
       -0.02725459 -0.05294959 -0.06185072 0.008041706
0001b0 5b 85 9c 3d 67 4b 22 3d de 93 03 3c 56 53 15 3d
       0.07642623 0.03962269 0.00803086 0.03645643
0001c0 42 17 a1 3c 60 cf 63 3d 67 50 ac 3c 5b d8 e2 3b
       0.01966441 0.05561769 0.021034433 0.0069227642
0001d0 3a a4 3c bc ae 23 4f 3c b6 4b f2 bc 16 40 ba 3c
       -0.011513764 0.012642784 -0.029577117 0.022735637
0001e0 32 d9 42 3d 9a c2 39 3c c6 93 ef 3c 9b 8b 08 3c
       0.047570415 0.0113379005 0.029245269 0.008334066
0001f0 3c 77 a6 bc 57 55 06 bd 43 48 be bc cf 3a 16 bc
       -0.020320527 -0.03279623 -0.023227816 -0.0091692945
000200 fc d0 9b bc 11 c6 cc bb 69 a3 95 bc 1e dc 09 bd
       -0.01902055 -0.0062491973 -0.018266397 -0.033657186
000210 21 ec d8 bc 26 e0 ef 3b d1 ff 8a bb ab d3 67 3c
       -0.026479783 0.0073204217 -0.0042419215 0.014149587
000220 7c 23 48 3c 48 80 34 bc fd 19 bc 3b 41 fe 4b bc
       0.012215491 -0.011016913 0.0057404027 -0.012450756
000230 a2 55 66 3b c0 42 e5 bc c1 f9 89 bc c9 52 f6 bb
       0.0035146256 -0.02798593 -0.016842725 -0.007517193
000240 e8 45 8d bb 40 a6 78 b9 f3 e2 67 3c fa 10 57 3c
       -0.004311312 -0.00023713056 0.01415323 0.013126606
000250 48 0f d1 bc a6 56 44 bc 99 0d 1d bc aa de 39 3d
       -0.025519982 -0.011983549 -0.009585761 0.045378365
000260 c7 76 fd bc e7 d3 d1 bd 0c 0c 80 bd 2d 0a e6 bb
       -0.030940427 -0.10245495 -0.06252298 -0.007020256
000270 4d 93 64 bc c4 2b 58 bd 87 2e 8b bd eb 47 f3 b8
       -0.013951135 -0.052776113 -0.06795984 -0.00011600539
000280 0b 72 c6 bd 9c 1d 35 3c 04 f7 69 bc 4c 93 79 3c
       -0.09689721 0.011054423 -0.0142800845 0.015232872
000290 3d a9 5a bc 88 fb 29 bd 7a b9 42 3b dc 4a 9f 3d
       -0.013346014 -0.041499645 0.0029712603 0.0777795
0002a0 20 20 86 3d 11 ea 0a bd 5d e1 c1 3c 4d e5 2b bd
       0.06549096 -0.03391463 0.023667032 -0.041966725
0002b0 34 c4 18 bd d1 9c 2e bd b1 11 dd bd 6e db db ba
       -0.03729649 -0.04263002 -0.1079439 -0.0016773769
0002c0 d1 28 f7 3c ed cd 0f 3d af 26 0a 3c 85 6f 29 bb
       0.03017083 0.035108496 0.008432074 -0.0025853824
0002d0 5a d1 02 3d 79 28 0e 3d 6a cc a8 3c 4a a0 50 bc
       0.031937934 0.034706566 0.020605285 -0.012733528
0002e0 9c 35 a9 bb 74 05 ec 3c ec 65 2f bc 8b 35 b6 3c
       -0.0051638614 0.028811194 -0.010705452 0.022242328
0002f0 f6 e1 d7 3c b6 e5 8b 3b 67 5e 40 bc 9f d4 20 bc
       0.026352864 0.004269327 -0.011741257 -0.009816318
000300 e1 80 04 3d 44 8e ae 3c 7a 09 c3 3c c1 99 84 ba
       0.03234947 0.021308072 0.02380823 -0.0010116623
000310 14 86 ee 3a 43 63 ce 3c 0d d4 ab bb 83 11 cb 3c
       0.0018197917 0.025193816 -0.0052437843 0.024788624
000320 19 35 86 3d c7 ae 8d 3d f1 e0 22 3d 67 11 81 3d
       0.06553096 0.06918102 0.039765302 0.06302147
000330 4d a1 0a bb 35 3a 8a bc 32 47 e8 bc dd 23 52 bd
       -0.0021153272 -0.016873458 -0.028354261 -0.051303733
000340 86 35 d1 bc 55 de 4a bd b5 85 6f bd 7a d4 38 bd
       -0.025538217 -0.04952844 -0.058477122 -0.04512451
000350 ae 26 c9 bd ce 36 81 bd 5c e0 1a be 62 a4 b2 bd
       -0.09821831 -0.06309281 -0.15124649 -0.0872276
000360 d2 27 74 bb 5d fc ca bd 3d 93 c7 bd 79 75 96 bd
       -0.003725518 -0.09911416 -0.0974488 -0.07346625
000370 5a 0f ba bd 74 65 0f bd 77 b1 33 be 9f 71 a2 bd
       -0.09084959 -0.035008863 -0.17548166 -0.07931828
000380 7a e6 20 bd b0 5a 8a 3c d9 a6 3c 3b 16 21 9d 3b
       -0.0392823 0.016888946 0.0028785972 0.004795204
000390 4d 0d 0f bd 60 dc 35 bb 7d 06 e4 3b 89 62 49 bc
       -0.034924794 -0.0027749762 0.0069587813 -0.012291559
0003a0 52 8a 14 bd db 46 d3 bc 8c 4d 88 bc 14 62 88 bc
       -0.036264725 -0.025790622 -0.01663854 -0.01664833
0003b0 7b ce c1 bc 81 c4 1f bc 9f 7a 86 bc f4 cd e2 bc
       -0.023658028 -0.00975144 -0.016415892 -0.027686097
0003c0 50 b9 e6 bb 30 70 a6 ba a7 15 2b bb 4d f6 f8 bb
       -0.007041134 -0.0012698229 -0.0026105435 -0.0075977207
0003d0 53 06 3b 3c f7 6e 0c 3b 42 3f 13 3c 66 ae 01 bd
       0.011415082 0.0021428445 0.00898725 -0.03166046
0003e0 b0 fc ca bb 06 12 af bc 5c 16 b7 bc f9 d5 84 3b
       -0.0061946735 -0.021370899 -0.022349529 0.004053828
0003f0 e1 7d 0d 3d 4b 4f 25 3d 16 db 0e 3d 66 cd 85 bb
       0.034543876 0.040358823 0.034876905 -0.0040833233

net._orig_mod.net.2.bias f4 [32]
000000 0c 63 4d bc 20 37 d9 3b 56 f0 46 bd 05 88 0c bc
       -0.012535822 0.006628886 -0.048569046 -0.008577351
000010 84 bc fc bc 71 4f b2 3d 8b ac 17 3a 0a 55 92 bc
       -0.03085161 0.087065585 0.0005785904 -0.017862815
000020 42 78 07 bc dd 39 0d bb 94 ea a0 bb 11 6b 07 bd
       -0.008268418 -0.0021549382 -0.0049107764 -0.03306109
000030 81 53 08 bd 35 e8 32 bd bb bf 37 ba 30 85 f0 bc
       -0.03328276 -0.04367848 -0.0007009466 -0.029360384
000040 03 7f e2 3d 59 b4 2f bd be 65 d1 bc dc 98 38 3a
       0.11059382 -0.042896602 -0.02556121 0.0007041821
000050 a5 9e 09 3d f7 2e 88 3c 20 4c ec bc 92 9d a4 bb
       0.03359856 0.016623957 -0.028844893 -0.0050236667
000060 cd 10 43 bc 13 f5 94 bc f0 93 cf b9 85 a2 63 bb
       -0.011905861 -0.018183267 -0.0003959234 -0.003473432
000070 6e a8 db bc f1 40 a0 bc b2 29 64 3c 9f a2 59 3d
       -0.026813712 -0.019562216 0.013925957 0.053133603

net._orig_mod.net.4.weight f4 [4, 32, 5, 5]
000000 a4 61 9e bd 2d ba c3 bc 33 2b 59 3d 24 83 7e bd
       -0.07733467 -0.023892486 0.053019714 -0.062136784
000010 be c8 2c bd 4f f7 98 3a 18 39 fc 3c ae 6b db 3d
       -0.04218363 0.0011670383 0.030788943 0.10713898
000020 37 c6 43 bc eb 13 03 bd 90 09 82 bd 8b 12 f3 3c
       -0.011949114 -0.032001417 -0.0634948 0.029671928
000030 dd a6 6a 3e d7 5a f6 3d 4c 96 3a bb 00 32 5c 3b
       0.22915216 0.12029045 -0.0028470932 0.0033599138
000040 53 1c e0 3c 9f 9f 8f 3c d8 d9 f4 bd e4 21 27 bd
       0.027357256 0.017532168 -0.11955613 -0.040803805
000050 ce e4 db bb fa ad df bc 4d eb 48 bd 28 d7 27 bc
       -0.0067106253 -0.027304638 -0.049052525 -0.010244168
000060 34 b9 89 bb 62 2f 81 bd 8b e3 8b bd c6 0c bf bd
       -0.004202986 -0.06307866 -0.0683051 -0.09328608
000070 c1 35 30 3d 66 34 2b bd 05 90 a0 bd bf 72 19 bd
       0.043020014 -0.041798018 -0.078399695 -0.037462946
000080 4b d8 5c 3d dc 63 f9 bc 62 6c 93 bc 99 b4 19 bc
       0.05391721 -0.030443124 -0.017996017 -0.009381437
000090 15 68 2f 3d 5c 1b f6 3d 4e 68 05 bd 4f ea d5 3c
       0.04282387 0.12016937 -0.032570176 0.026112704
0000a0 46 20 40 bd db f7 63 bd b9 9a 18 bd 08 46 a2 bd
       -0.04690578 -0.055656295 -0.03725693 -0.07923514
0000b0 1a 88 93 3c f4 2d 48 bc d3 99 1d bd f3 ad 8c bd
       0.018009234 -0.012217987 -0.038476776 -0.06869116
0000c0 50 a9 ce 3c 0a 9c 36 bc 77 68 14 3c 90 64 9e 3c
       0.025227219 -0.011145601 0.0090581095 0.019335061
0000d0 4d 6f 1a bd 90 05 7a bb 3f 34 2f bc 1e 4b a4 bc
       -0.0377038 -0.0038150288 -0.010693609 -0.02005535
0000e0 cb 57 03 bd ca 5f a0 bc a8 9b f2 bc c4 78 27 3c
       -0.032066148 -0.019576926 -0.029615238 0.010221664
0000f0 2d 17 fa 3c 05 8a fe 38 82 e9 81 3b 5b 03 e0 3c
       0.03052863 0.00012137372 0.003964604 0.02734535
000100 8e 91 6a 3c 67 3a 18 bd 62 b3 0b 3d 9c 1b 5a 3d
       0.0143169295 -0.03716507 0.03410662 0.053248987
000110 4d 38 a4 3c b0 8f ac bc 6d a3 07 3c 46 30 b9 3a
       0.020046378 -0.02106461 0.00827871 0.0014128766
000120 84 32 a1 bb 10 dc 47 3d ec ce 03 3b 59 38 16 bd
       -0.004919352 0.048793852 0.0020112349 -0.03667483
000130 7f c4 8f 3c 09 c6 d9 bc e0 21 0f bc dd 13 8a bc
       0.017549751 -0.026583688 -0.008736104 -0.016855175
000140 4d bd b4 bd 02 7a ce b8 e8 09 82 bc a6 d0 81 bc
       -0.08825169 -9.845571e-05 -0.015873864 -0.015846562
000150 91 ed 29 bd be 3f 13 bd 5d 90 da 3c aa 21 1c bd
       -0.041486327 -0.03594946 0.026680166 -0.038118042
000160 d2 92 27 3c c3 cb be 3b 2f 40 48 bd ef 4b 04 3d
       0.010227876 0.00582263 -0.048889335 0.03229898
000170 64 d2 e2 bb 45 15 2e bd 62 ba a1 3c 35 c2 35 bd
       -0.006922053 -0.042500753 0.019742195 -0.044374663
000180 08 55 9b 3d 7c c2 8c 3c 2d b1 a3 bb 09 1a be bc
       0.07584578 0.017182581 -0.0049954862 -0.023205774
000190 f8 63 80 bb b5 48 93 3d 6a 3e cf bc 9e 3c 36 bc
       -0.003918167 0.07191602 -0.025298316 -0.011122851
0001a0 99 5b 17 3d 08 5b 76 3c 0c 34 1a 3c b3 18 fc bc
       0.03695259 0.015036352 0.009411823 -0.030773496
0001b0 b0 b8 75 bd 35 8b bf bc 2d 60 64 bc 9c 23 5b b8
       -0.059990585 -0.023381809 -0.013938946 -5.2246833e-05
0001c0 be 31 19 bc 5c 2e 50 bc 89 5f 96 bc 06 63 0b bc
       -0.009350238 -0.012706365 -0.018356102 -0.008507496
0001d0 ea 0c c2 bc e8 91 1e 3b 37 ac b9 3c d6 36 ba 3b
       -0.023687799 0.0024195854 0.022665126 0.0056828065
0001e0 6d d9 a3 3c ff 98 bb 3b 87 aa 98 3c a6 1b 2d 3c
       0.020001138 0.0057250257 0.018636001 0.010565674
0001f0 16 eb 68 3c 6b 41 f5 bc ce 64 87 bd 22 93 83 bd
       0.014216205 -0.02993842 -0.06611024 -0.06424548
000200 47 c8 30 bc 7c 5b cd bb aa 27 2d 3c 9b ad 1c 3c
       -0.010789937 -0.0062670093 0.010568539 0.009562875
000210 80 49 31 3d ae e4 e3 3d 1f 9c 85 3c 6d e5 1f bc
       0.043282986 0.111276016 0.016309796 -0.009759289
000220 98 bf cb 3c da 43 d6 3d ce 78 de 3d b4 a3 0a ba
       0.024871632 0.104621604 0.108628854 -0.0005288676
000230 0e d6 8d bc 9c 15 b1 ba 44 a1 28 3d ab 7f f5 3b
       -0.017313983 -0.0013510468 0.04116942 0.007492026
000240 b5 8e b9 bc 89 b4 da 3c 49 36 c5 bc 31 f4 36 bd
       -0.022651056 0.026697414 -0.024073737 -0.044666473
000250 68 d6 ce bc 80 42 1c bc 2f a1 70 3c 0b 42 9d 3c
       -0.025248721 -0.009537339 0.014686867 0.01919653
000260 4a 0f a9 3c 47 e9 20 3c 85 4a 6c bb 20 71 0c 3d
       0.020637173 0.009821243 -0.003605516 0.034287572
000270 51 1d ab 3b b1 15 25 3c 16 24 41 bc c6 df 12 3d
       0.0052220006 0.010075972 -0.011788389 0.03585794
000280 9d f3 0e bc f5 5c 13 3d 13 27 b8 bc d2 9e c9 3c
       -0.008725074 0.035977323 -0.02247957 0.024611864
000290 6c f9 e9 3b be 85 de 3b 10 75 b2 bc 5a f4 79 bc
       0.007140329 0.0067908457 -0.021784335 -0.015256012
0002a0 fe 7b d4 3b 4b 01 a3 bc 6d bc 38 3c f6 a1 83 bc
       0.0064845076 -0.019898077 0.011275393 -0.01606844
0002b0 20 b4 b4 3c d1 99 8f 39 92 e0 57 bc 12 fa bb 3b
       0.022058547 0.00027389688 -0.0131761 0.005736598
0002c0 d3 67 56 bc fb ae a2 bc 38 0f 42 3d 5d 43 3e 3c
       -0.013086277 -0.019858828 0.047377795 0.01161274
0002d0 c1 1a ec 3c 99 1e 37 3d 8e 14 54 bc 51 9b 4a 3d
       0.028821351 0.044706915 -0.012944354 0.049464528
0002e0 3c dd 24 3d 2e 89 16 3d 49 db 22 3d af 66 46 3d
       0.040250048 0.03675192 0.039759908 0.04843777
0002f0 34 fe 70 bb 54 c0 9a bc 84 e8 ad ba 1f 17 dc bb
       -0.003677261 -0.018890537 -0.0013268148 -0.0067166234
000300 9d a7 17 bc 94 1a 19 3d a5 6a 35 3d d5 68 06 3d
       -0.009256271 0.037378863 0.044291157 0.03281482
000310 de 38 97 bc 20 c6 1b 3c 0a 8d 03 3d ed c5 aa bb
       -0.018459734 0.009507686 0.032116927 -0.005211583
000320 4d 2b f6 3c 4e 52 06 bc 26 10 1a 3d 3e 1f de 3b
       0.030049944 -0.008198334 0.037613057 0.0067786267
000330 25 2b 9b b9 36 0f fb 3c ed 28 1e 3c 8b 10 c5 bc
       -0.0002959605 0.030646902 0.009653312 -0.02405574
000340 ee c5 3a 3c 60 e2 0f 3d c4 b7 10 3d 57 a3 9b 3c
       0.011399729 0.035127997 0.035331503 0.018998785
000350 14 5d 84 bc 54 e8 2b 3d 4c 48 0e 3c c2 5b cc bc
       -0.016157664 0.041969612 0.008684229 -0.024946097
000360 87 3a 14 bb d1 f3 19 3c d5 2d b0 3c 4e fe cc bb
       -0.0022617893 0.009396509 0.02150623 -0.0062559014
000370 c9 09 99 bc 10 26 1d bc f2 6b 8d 3b 32 68 fb 3c
       -0.018681424 -0.009591594 0.0043158466 0.030689333
000380 37 a4 88 bc 20 c8 a3 bc c3 7b a9 bc 3a 22 f4 3c
       -0.016679866 -0.019992888 -0.020688897 0.029801477
000390 4f 80 bb 39 ae 4c 47 bc d0 34 ee 3c b3 65 70 bc
       0.00035763017 -0.012164278 0.029077917 -0.0146726845
0003a0 39 fe a8 3c 5b 9d 01 3d 23 91 4b bc f2 3b 13 bb
       0.020629035 0.031644206 -0.01242474 -0.002246615
0003b0 cf ee f1 bc 1d 5c fb bc 69 0c b4 3c 55 09 ac 3c
       -0.029532818 -0.030683571 0.021978574 0.021000544
0003c0 e2 f2 76 3c 65 a1 db 3c 61 8b 63 bc 21 72 22 3c
       0.015072556 0.026810357 -0.013888211 0.009914906
0003d0 fb 5c 9a 3c fa 8f d9 bc 8f 01 1b bc 08 f6 41 ba
       0.018843165 -0.026557911 -0.009460821 -0.0007399027
0003e0 6c 87 03 bb c2 b9 08 3c 4e a6 a9 3c 8f de 96 bc
       -0.0020069731 0.008345069 0.020709183 -0.018416671
0003f0 7e 6f 2d 3d 36 57 19 3c e3 4c 17 3d ec ba f2 3b
       0.042342655 0.009359172 0.03693856 0.0074075367

net._orig_mod.net.4.bias f4 [4]
000000 fe 23 55 3d 6e 7e ac 3d 28 9c 2a 3d cd 9a 99 3c
       0.052036278 0.08422552 0.04165283 0.018750573

exp_avg f4 [64, 5, 9, 9]
000000 c7 28 16 2c 78 27 60 ac 01 c9 f3 ab 7a ce 4c 2c
       2.1338918e-12 -3.1854224e-12 -1.7321978e-12 2.9104761e-12
000010 84 6b 9f ac 06 2c ab ae dd bc 5d af d3 00 8d af
       -4.5309884e-12 -7.784e-11 -2.016693e-10 -2.5648336e-10
000020 f4 88 84 ae c3 95 bf aa 7e c1 14 ad 22 b5 d7 ac
       -6.026993e-11 -3.4032334e-13 -8.45579e-12 -6.1307773e-12
000030 d1 83 9c 2a 95 e2 f4 ac cd b8 ba ae 11 1b 70 af
       2.7802633e-13 -6.9600528e-12 -8.491128e-11 -2.1837489e-10
000040 a7 7b 97 af 09 fa 8b ae ac 13 ea ac 1e 79 9c ad
       -2.75546e-10 -6.365403e-11 -6.652864e-12 -1.7788934e-11
000050 01 85 75 ad 70 f8 b2 ac ec a0 4a ad 9d d3 d0 ae
       -1.395617e-11 -5.0866464e-12 -1.15181024e-11 -9.496335e-11
000060 f9 ce 84 af 6e 2b a7 af c9 94 a1 ae f6 a8 2e ad
       -2.4157723e-10 -3.0407982e-10 -7.347862e-11 -9.928272e-12
000070 2e 1e ce ad 9a b1 9f ad e1 17 fd ac 93 0e 71 ad
       -2.3432891e-11 -1.8155078e-11 -7.1933436e-12 -1.37025e-11
000080 3b 35 e5 ae 35 e1 92 af b2 d0 b9 af a6 59 be ae
       -1.042317e-10 -2.6717265e-10 -3.379959e-10 -8.6561244e-11
000090 a7 7e 1f ad 8d de cf ad df 66 9d ad 01 80 e3 ac
       -9.066226e-12 -2.3632008e-11 -1.7894517e-11 -6.4659393e-12
0000a0 87 5b 74 ad b7 46 f6 ae 71 08 a1 af 25 ad cd af
       -1.3890117e-11 -1.1199346e-10 -2.9291727e-10 -3.741231e-10
0000b0 42 25 df ae 35 c7 8f ac c2 eb a1 ad 4a 0f 7f ad
       -1.0147484e-10 -4.086421e-12 -1.8408278e-11 -1.4498467e-11
0000c0 e6 0c bd ac fa da 82 ad 06 cb 02 af 77 54 ae af
       -5.373135e-12 -1.4876534e-11 -1.189556e-10 -3.1710432e-10
0000d0 97 ec e0 af 95 72 00 af 22 cc 03 2c 51 23 54 ad
       -4.091347e-10 -1.168224e-10 1.8729536e-12 -1.2058647e-11
0000e0 01 03 3c ad 5f fb a6 ac 74 6c 92 ad bb 95 08 af
       -1.068723e-11 -4.7459116e-12 -1.6646441e-11 -1.2422323e-10
0000f0 db 41 b9 af 00 8a f1 af 87 ff 10 af 1f d1 11 2d
       -3.3698097e-10 -4.39357e-10 -1.3187505e-10 8.28873e-12
000100 f8 cb 9f ac b0 69 c3 ac 76 92 40 ac 21 79 91 ad
       -4.541697e-12 -5.553967e-12 -2.7366143e-12 -1.6538384e-11
000110 a7 b7 0b af 71 a0 c0 af 75 e7 fd af 72 c7 20 af
       -1.2707223e-10 -3.5038597e-10 -4.6184892e-10 -1.4622772e-10
000120 e5 d7 80 2d 18 25 9a 2c ef ec 1f 2c 3e 97 60 2c
       1.4647792e-11 4.3810615e-12 2.2726784e-12 3.191627e-12
000130 00 12 41 ad 9f fd 0a af d4 18 c3 af a1 08 02 b0
       -1.0974777e-11 -1.2641131e-10 -3.5487935e-10 -4.7305987e-10
000140 32 fa 2c af e5 51 88 2c 72 62 fd ab 37 70 9b ab
       -1.5732196e-10 3.8744446e-12 -1.8004055e-12 -1.1044558e-12
000150 a0 38 4d 2c a7 d5 40 ac cb 10 a1 ae fe cf 5d af
       2.9163685e-12 -2.7403442e-12 -7.3244154e-11 -2.0173727e-10
000160 2d cc 93 af 98 aa bb ae 1a 4a 5d 2b e0 27 fd ac
       -2.688422e-10 -8.534079e-11 7.861781e-13 -7.1951195e-12
000170 f5 33 c9 ac b2 5a 41 aa 7b e1 c5 ac 93 cf ad ae
       -5.718532e-12 -1.717331e-13 -5.62411e-12 -7.904002e-11
000180 be d6 6c af f6 8b 9c af 96 13 c3 ae 93 b0 c1 ac
       -2.1540367e-10 -2.8475683e-10 -8.8710525e-11 -5.5049936e-12
000190 61 78 8b ad 2a d2 62 ad 00 db b3 ac ad f7 2a ad
       -1.585593e-11 -1.28932785e-11 -5.1118e-12 -9.718376e-12
0001a0 62 af bf ae b2 70 80 af 17 ff a8 af 84 45 d6 ae
       -8.7168286e-11 -2.336314e-10 -3.0740274e-10 -9.743942e-11
0001b0 2f a3 16 ad e6 dd b5 ad a3 28 8f ad 14 46 e8 ac
       -8.562747e-12 -2.067586e-11 -1.6275264e-11 -6.601617e-12
0001c0 ff 7d 43 ad ec de ce ae e6 e5 8a af f1 f3 b6 af
       -1.1112443e-11 -9.407394e-11 -2.5265406e-10 -3.3278938e-10
0001d0 2e aa ec ae 7c 69 0a ad 56 cb b5 ad 7e 72 8a ad
       -1.07622675e-10 -7.867814e-12 -2.0667617e-11 -1.5739628e-11
0001e0 f2 02 c7 ac 28 ff 3e ad 79 f0 da ae 61 17 95 af
       -5.656247e-12 -1.0856906e-11 -9.956209e-11 -2.7119554e-10
0001f0 9e 43 c5 af 89 cd 01 af a5 2f 8e ac 08 db 8f ad
       -3.5882136e-10 -1.1805502e-10 -4.0411723e-12 -1.6354487e-11
000200 3b 7e 61 ad cd c9 a5 ac e0 06 4d ad a8 9f e6 ae
       -1.2817798e-11 -4.7119864e-12 -1.1654427e-11 -1.048755e-10
000210 01 c7 9e af 8e 11 d3 af 07 40 0d af d3 67 4c 2b
       -2.8881433e-10 -3.839315e-10 -1.2846622e-10 7.2619444e-13
000220 5c 09 41 ad 2b c4 24 ad 23 18 8a ac 28 63 63 ad
       -1.0972858e-11 -9.365879e-12 -3.9248756e-12 -1.2925473e-11
000230 d0 dd ef ae da d5 a6 af ec 04 df af 98 89 18 af
       -1.09078635e-10 -3.0347175e-10 -4.056696e-10 -1.3873203e-10
000240 c6 23 dd 2c ff 65 9b ac fb 65 a3 ac e7 01 fa ab
       6.2851694e-12 -4.416689e-12 -4.6440607e-12 -1.7764096e-12
000250 74 6f 5c ad 48 a8 f4 ae f1 4d ac af e0 f8 e7 af
       -1.25303e-11 -1.1125728e-10 -3.1341998e-10 -4.2195492e-10
000260 24 b7 23 af 90 c6 58 2d 88 0a 69 2c 76 d1 11 2c
       -1.4889828e-10 1.2322268e-11 3.3117138e-12 2.0722014e-12
000270 94 bb 68 2c 34 dd 0e ad e5 d7 f2 ae 82 21 ae af
       3.307331e-12 -8.1208824e-12 -1.10432365e-10 -3.1674224e-10
000280 39 78 ec af 31 cb 2c af cb 7c 98 2c 56 c0 f6 ab
       -4.3013573e-10 -1.5715497e-10 4.3339546e-12 -1.7532735e-12
000290 ce 54 ea ab 88 58 f4 2b 14 d3 21 ac cb cf 79 ae
       -1.6650238e-12 1.7361815e-12 -2.2996648e-12 -5.6800602e-11
0002a0 ef bf 2b af 45 73 5e af fe 62 59 ae 00 bc e1 2b
       -1.5620548e-10 -2.0231734e-10 -4.942801e-11 1.6039392e-12
0002b0 86 06 d7 ac 46 d5 b8 ac a4 8c 20 ab 0b 64 97 ac
       -6.1113918e-12 -5.2532726e-12 -5.7038597e-13 -4.302785e-12
0002c0 7e 02 87 ae 79 ce 36 af 68 84 6b af 42 e7 6b ae
       -6.139532e-11 -1.6626157e-10 -2.1420166e-10 -5.3638212e-11
0002d0 ec f5 8a ac 57 78 6b ad 05 a1 46 ad a3 81 ab ac
       -3.9494987e-12 -1.3384924e-11 -1.12907505e-11 -4.874505e-12
0002e0 dd 0b 0b ad 21 c1 95 ae ec 32 46 af 22 d9 7e af
       -7.903869e-12 -6.810042e-11 -1.8026086e-10 -2.3178306e-10
0002f0 be 2d 89 ae 45 68 e6 ac ed 8d 97 ad 6d bc 75 ad
       -6.238164e-11 -6.5485694e-12 -1.722974e-11 -1.39684765e-11
000300 44 a1 d7 ac e4 3c 20 ad 90 83 a1 ae bc f5 55 af
       -6.1285716e-12 -9.1084675e-12 -7.3448025e-11 -1.945954e-10
000310 a0 15 8a af a8 9d 9d ae 68 60 d8 ac 96 b2 96 ad
       -2.511742e-10 -7.167539e-11 -6.1497925e-12 -1.7132334e-11
000320 bb 43 6a ad a5 f5 b3 ac 59 97 17 ad e4 5c aa ae
       -1.3316399e-11 -5.114758e-12 -8.616962e-12 -7.747206e-11
000330 2b 41 65 af 1b f2 94 af 6d 30 b1 ae bc 8b 88 ac
       -2.0850581e-10 -2.709307e-10 -8.05763e-11 -3.880866e-12
000340 1f 44 78 ad c2 c6 42 ad 3d f1 92 ac 77 34 1c ad
       -1.4112294e-11 -1.1071756e-11 -4.1763524e-12 -8.879223e-12
000350 9d 69 b3 ae 43 24 74 af a8 82 9f af 55 c3 c3 ae
       -8.158738e-11 -2.2204553e-10 -2.9014768e-10 -8.902271e-11
000360 78 31 a6 ab 67 7c 39 ad 44 99 17 ad 40 1c 72 ac
       -1.180874e-12 -1.0543655e-11 -8.617388e-12 -3.440595e-12
000370 ec fa 26 ad 5a d6 ba ae e9 5d 80 af 1e af a8 af
       -9.491723e-12 -8.496377e-11 -2.3349792e-10 -3.068345e-10
000380 b7 13 d5 ae bf 33 1d 2c cd a5 d5 ac 7b 53 ba ac
       -9.6896206e-11 2.2339767e-12 -6.0722317e-12 -5.295706e-12
000390 b5 71 01 ac 4c 09 1f ad 89 ed be ae fe be 84 af
       -1.8395123e-12 -9.040168e-12 -8.6823944e-11 -2.4146368e-10
0003a0 af a1 af af a4 c4 e5 ae 00 d1 e3 2c 8c 0a f5 aa
       -3.1947198e-10 -1.0448645e-10 6.4749317e-12 -4.352806e-13
0003b0 7d d1 fb aa 43 5b f6 2b 11 24 d1 ac 09 e4 bd ae
       -4.4731918e-13 1.7504682e-12 -5.9441414e-12 -8.635232e-11
0003c0 57 66 86 af 8c 52 b3 af 74 69 f3 ae c9 7a da 2c
       -2.4447175e-10 -3.2618563e-10 -1.1069093e-10 6.2095645e-12
0003d0 93 38 0f 2c 77 da 37 2c 15 2c d4 2c 1a b8 fe ac
       2.0352927e-12 2.6127136e-12 6.0302965e-12 -7.2395536e-12
0003e0 9b 53 45 af f4 b9 1d b0 e8 74 68 b0 21 62 e5 af
       -1.7946748e-10 -5.738052e-10 -8.456724e-10 -4.1724582e-10
0003f0 2c 0e 3e 2c 7e 7f 9d ac a1 bd 43 ac 79 94 3c 2c
       2.700849e-12 -4.476363e-12 -2.7816432e-12 2.6798826e-12

exp_avg_sq f4 [64, 5, 9, 9]
000000 ee d5 9d 2c 31 b9 9c 2c a1 bb 9b 2c 09 44 9c 2c
       4.4859593e-12 4.454347e-12 4.426196e-12 4.44134e-12
000010 e9 22 a3 2c 6f 66 a4 2c 4c 24 a6 2c a1 3c a8 2c
       4.6366144e-12 4.6725328e-12 4.7220335e-12 4.7815783e-12
000020 d2 62 aa 2c cb 97 99 2c b7 22 98 2c 10 15 97 2c
       4.842662e-12 4.365374e-12 4.323954e-12 4.2940165e-12
000030 d3 dc 97 2c 34 4c 9f 2c d6 72 a1 2c e6 3c a4 2c
       4.3161945e-12 4.527512e-12 4.5886446e-12 4.6679214e-12
000040 86 64 a7 2c d2 7c aa 2c df 5b 95 2c 09 b0 93 2c
       4.757586e-12 4.8455484e-12 4.2450344e-12 4.197535e-12
000050 51 af 92 2c 3d cc 93 2c 1f df 9b 2c 76 ec 9e 2c
       4.1690336e-12 4.2006663e-12 4.4301364e-12 4.5168825e-12
000060 6d bf a2 2c 7c ed a6 2c 53 e9 aa 2c d3 8e 92 2c
       4.6255695e-12 4.74437e-12 4.857595e-12 4.1654263e-12
000070 30 de 90 2c f3 0b 90 2c f1 8a 91 2c e4 40 9a 2c
       4.117394e-12 4.094053e-12 4.1365735e-12 4.3841476e-12
000080 b8 15 9e 2c 19 c2 a2 2c 23 bf a7 2c 07 65 ac 2c
       4.4930414e-12 4.625866e-12 4.767646e-12 4.8997503e-12
000090 e6 07 92 2c bf 8e 90 2c f8 0c 90 2c 4e f4 91 2c
       4.1504465e-12 4.108574e-12 4.094166e-12 4.148271e-12
0000a0 68 41 9b 2c 65 9c 9f 2c 56 c6 a4 2c 0a 2a aa 2c
       4.4126265e-12 4.536415e-12 4.68318e-12 4.836358e-12
0000b0 96 12 af 2c 46 5b 93 2c b0 58 92 2c 78 47 92 2c
       4.9758626e-12 4.1881247e-12 4.159416e-12 4.157504e-12
0000c0 97 90 94 2c 68 45 9e 2c 60 c2 a2 2c 5c e5 a7 2c
       4.2224657e-12 4.4983357e-12 4.625897e-12 4.7718895e-12
0000d0 98 1d ad 2c 8c bc b1 2c 02 00 97 2c a4 a3 96 2c
       4.9202413e-12 5.0515755e-12 4.291679e-12 4.281424e-12
0000e0 40 17 97 2c 83 b8 99 2c ad af a3 2c f3 f2 a7 2c
       4.2942594e-12 4.3690065e-12 4.6522426e-12 4.7733983e-12
0000f0 6f 97 ac 2c de 21 b1 2c c6 fc b4 2c a6 10 9c 2c
       4.9053465e-12 5.0344026e-12 5.143971e-12 4.435635e-12
000100 76 6f 9c 2c d9 69 9d 2c 9f 4e a0 2c 63 56 aa 2c
       4.4461613e-12 4.47396e-12 4.556202e-12 4.8412815e-12
000110 ce 12 ae 2c 2e dc b1 2c cc 58 b5 2c 97 1a b8 2c
       4.947465e-12 5.0550874e-12 5.154188e-12 5.2325466e-12
000120 f4 76 a1 2c d2 7e a2 2c 7c e5 a3 2c 4e e9 a6 2c
       4.5891017e-12 4.618397e-12 4.6582165e-12 4.743906e-12
000130 8c ce b0 2c 6f d3 b3 2c db 93 b6 2c 97 dd b8 2c
       5.025152e-12 5.11096e-12 5.1891664e-12 5.254196e-12
000140 69 6f ba 2c c4 9a 9e 2c f9 d2 9d 2c 48 3b 9d 2c
       5.298807e-12 4.5078125e-12 4.485631e-12 4.46879e-12
000150 65 37 9e 2c bd 8f a5 2c 13 11 a7 2c 4b ea a8 2c
       4.49678e-12 4.70554e-12 4.748321e-12 4.800859e-12
000160 fb fc aa 2c d2 08 ad 2c e9 6a 9a 2c 6f 49 99 2c
       4.859777e-12 4.917935e-12 4.3888127e-12 4.3566743e-12
000170 d6 a3 98 2c d2 e3 99 2c d6 d0 a1 2c c8 38 a4 2c
       4.3382893e-12 4.3738147e-12 4.5990807e-12 4.6674643e-12
000180 b8 1e a7 2c 71 3d aa 2c d2 34 ad 2c 20 3a 96 2c
       4.749836e-12 4.838512e-12 4.92282e-12 4.2697096e-12
000190 71 df 94 2c bf 46 94 2c e2 dc 95 2c ac 6d 9e 2c
       4.23122e-12 4.2142674e-12 4.2593576e-12 4.502806e-12
0001a0 b4 bd a1 2c 82 ac a5 2c 19 cf a9 2c c5 a4 ad 2c
       4.5969565e-12 4.7087343e-12 4.8262614e-12 4.935249e-12
0001b0 9e 69 93 2c e6 07 92 2c c1 9b 91 2c a6 91 93 2c
       4.189717e-12 4.1504465e-12 4.13844e-12 4.1941615e-12
0001c0 29 c2 9c 2c 5c d8 a0 2c 60 9f a5 2c b7 8f aa 2c
       4.4553428e-12 4.5714942e-12 4.7072762e-12 4.847646e-12
0001d0 0b 0d af 2c af de 92 2c be b1 91 2c 27 92 91 2c
       4.975247e-12 4.1742924e-12 4.140881e-12 4.137374e-12
0001e0 ea eb 93 2c f6 af 9d 2c 62 49 a2 2c 2c 8e a7 2c
       4.204183e-12 4.481744e-12 4.612464e-12 4.7622097e-12
0001f0 ca e6 ac 2c 74 a8 b1 2c 70 27 94 2c 54 6f 93 2c
       4.9141568e-12 5.0493446e-12 4.2107914e-12 4.190351e-12
000200 99 bb 93 2c 34 71 96 2c 8d 96 a0 2c 6f 4d a5 2c
       4.198819e-12 4.2758245e-12 4.564188e-12 4.698179e-12
000210 87 89 aa 2c 1e b8 af 2c ad 32 b4 2c c4 c3 97 2c
       4.846959e-12 4.9942403e-12 5.121534e-12 4.3134125e-12
000220 9c b1 97 2c db 7f 98 2c e9 87 9b 2c 19 e9 a5 2c
       4.3113967e-12 4.3342946e-12 4.420454e-12 4.715461e-12
000230 ae 60 aa 2c 8b 1b af 2c 19 9e b3 2c c5 58 b7 2c
       4.842424e-12 4.976857e-12 5.1050384e-12 5.2110282e-12
000240 fd d6 9c 2c 92 80 9d 2c 00 d3 9e 2c c3 19 a2 2c
       4.457655e-12 4.4764826e-12 4.514056e-12 4.607177e-12
000250 d2 85 ac 2c e5 70 b0 2c 96 4d b4 2c db c3 b7 2c
       4.903391e-12 5.0147547e-12 5.1245215e-12 5.222917e-12
000260 dd 6a ba 2c cc 52 a2 2c 2a a8 a3 2c 16 65 a5 2c
       5.298302e-12 4.6135092e-12 4.6514086e-12 4.700805e-12
000270 08 c8 a8 2c b1 0c b3 2c 46 3a b6 2c 72 0a b9 2c
       4.797055e-12 5.088895e-12 5.1792208e-12 5.259176e-12
000280 ba 4e bb 2c be ca bc 2c 1d e4 84 2c 6b 04 84 2c
       5.3236e-12 5.3657903e-12 3.7769913e-12 3.752156e-12
000290 13 51 83 2c 49 02 84 2c 1d 62 8a 2c fc ac 8b 2c
       3.732245e-12 3.7519193e-12 3.9330887e-12 3.9698227e-12
0002a0 56 5b 8d 2c d4 4e 8f 2c b1 44 91 2c bb 55 81 2c
       4.0176014e-12 4.073056e-12 4.128774e-12 3.6759185e-12
0002b0 71 2b 80 2c 74 d8 7e 2c d8 53 80 2c b0 2e 87 2c
       3.6428018e-12 3.6215727e-12 3.6472873e-12 3.842114e-12
0002c0 ca 39 89 2c 36 c9 8b 2c 58 9f 8e 2c 00 5f 91 2c
       3.90019e-12 3.9729565e-12 4.0535734e-12 4.131695e-12
0002d0 83 a7 7b 2c e0 f5 78 2c 4f 8c 77 2c 7d e6 79 2c
       3.5762233e-12 3.5379408e-12 3.5178698e-12 3.5512975e-12
0002e0 5f 54 84 2c e8 1d 87 2c 40 87 8a 2c fe 35 8e 2c
       3.7610327e-12 3.840251e-12 3.9372117e-12 4.041877e-12
0002f0 15 b1 91 2c 7e 14 77 2c a0 59 74 2c c2 38 73 2c
       4.140808e-12 3.5112187e-12 3.4724237e-12 3.4563884e-12
000300 ea 2b 76 2c 44 f9 82 2c ec 61 86 2c f8 79 8a 2c
       3.498308e-12 3.7224963e-12 3.8193806e-12 3.935737e-12
000310 8c d0 8e 2c 87 d6 92 2c 0c 82 76 2c 18 20 74 2c
       4.059036e-12 4.173387e-12 3.5030893e-12 3.4692301e-12
000320 85 7a 73 2c 3e 0c 77 2c e1 e1 83 2c 2a b0 87 2c
       3.460039e-12 3.5107607e-12 3.7483215e-12 3.856489e-12
000330 a5 28 8c 2c 89 d0 90 2c ee 0c 95 2c 89 f4 78 2c
       3.9835518e-12 4.115878e-12 4.23627e-12 3.5378664e-12
000340 f1 51 77 2c 6c 56 77 2c 9c 72 7b 2c f0 5e 86 2c
       3.5146298e-12 3.5148785e-12 3.5732866e-12 3.8190492e-12
000350 c6 3a 8a 2c a6 a1 8e 2c d1 1e 93 2c a9 1b 97 2c
       3.928721e-12 4.0538293e-12 4.1814126e-12 4.294749e-12
000360 fb 4e 7f 2c f9 bb 7e 2c 95 8c 7f 2c 5d 11 82 2c
       3.6281522e-12 3.6199917e-12 3.6315718e-12 3.69675e-12
000370 47 e1 8a 2c 65 7d 8e 2c 79 6e 92 2c 2f 54 96 2c
       3.9472067e-12 4.0498043e-12 4.1618345e-12 4.2726027e-12
000380 e3 ab 99 2c 1d 0c 84 2c 0c 5d 84 2c 90 2e 85 2c
       4.367605e-12 3.7530105e-12 3.761996e-12 3.785257e-12
000390 8e a7 87 2c 45 79 90 2c e1 96 93 2c 01 c6 96 2c
       3.855533e-12 4.1061898e-12 4.194742e-12 4.2852393e-12
0003a0 7e c4 99 2c c3 30 9c 2c 2d c0 88 2c 01 a0 89 2c
       4.3703366e-12 4.4392003e-12 3.8866883e-12 3.911538e-12
0003b0 53 c8 8a 2c 13 56 8d 2c 1e 03 96 2c 2f 7d 98 2c
       3.9444364e-12 4.017017e-12 4.2636025e-12 4.333998e-12
0003c0 3e c6 9a 2c f1 be 9c 2c d5 2b 9e 2c e4 8d 26 2d
       4.3989526e-12 4.4549854e-12 4.4954964e-12 9.467514e-12
0003d0 a8 e9 27 2d 74 43 29 2d 26 dd 2b 2d 03 ab 32 2d
       9.544733e-12 9.621515e-12 9.7693294e-12 1.0156101e-11
0003e0 75 1d 34 2d 35 26 35 2d ff cc 35 2d 5c 2b 36 2d
       1.0238356e-11 1.02971425e-11 1.0334177e-11 1.035513e-11
0003f0 75 fa 24 2d 6d 54 26 2d 03 de 27 2d cf d8 2a 2d
       9.377933e-12 9.454754e-12 9.5421475e-12 9.711522e-12

exp_avg f4 [64]
000000 3f 30 a5 32 37 0b ce 32 60 d4 b9 1a ac 0c fd 31
       1.9230468e-08 2.3986656e-08 7.685732e-23 7.3647097e-09
000010 50 95 e5 b6 b2 b6 81 27 76 d3 05 36 55 b2 f8 30
       -6.842114e-06 3.600277e-15 1.994163e-06 1.809506e-09
000020 70 45 92 b3 2b db 05 b2 79 0a a2 36 6d b0 61 37
       -6.8112854e-08 -7.791452e-09 4.8291954e-06 1.3452122e-05
000030 b7 39 46 b7 8e e2 5d ae 94 25 6d 28 94 71 11 31
       -1.1815157e-05 -5.0450803e-11 1.3164291e-14 2.1164839e-09
000040 3a e2 05 32 77 9c 59 1a 20 67 8b 32 48 9a 97 36
       7.793057e-09 4.500094e-23 1.6228626e-08 4.5181114e-06
000050 e8 e1 71 31 65 bd aa 18 04 00 00 00 f3 e5 b3 b7
       3.5198529e-09 4.413521e-24 6e-45 -2.1445541e-05
000060 5f 34 57 9a ec d8 27 9a 26 9a 16 33 9c 7d b7 26
       -4.4503263e-23 -3.471002e-23 3.5064794e-08 1.2732222e-15
000070 fd 9d 79 35 f1 4b 49 ac db a7 58 b7 49 c2 f8 b4
       9.298963e-07 -2.8605974e-12 -1.2913685e-05 -4.633496e-07
000080 33 fe e1 31 bb 6e 51 30 04 2a 7f b8 5f f7 72 ad
       6.577261e-09 7.6191115e-10 -6.0835868e-05 -1.3811035e-11
000090 e1 84 b7 2f ca 6d c3 ae cc ba f2 2c db b7 9e 31
       3.3381922e-10 -8.887076e-11 6.8987923e-12 4.619307e-09
0000a0 d7 44 a0 b1 b9 eb 26 b2 ed 1b 1a 32 48 7c 99 36
       -4.664439e-09 -9.716069e-09 8.970329e-09 4.5742236e-06
0000b0 a2 59 fa 32 c9 0b 18 32 4c 38 e2 1d 95 b1 01 ac
       2.914459e-08 8.850244e-09 5.987991e-21 -1.843058e-12
0000c0 4c 1b b0 29 9e c4 2d 9e 36 f4 87 31 c2 90 bb b7
       7.8207053e-14 -9.199203e-21 3.9567807e-09 -2.2359545e-05
0000d0 06 90 c2 2b 21 c4 6a b1 dd bc 94 31 24 4c 2f 28
       1.3824504e-12 -3.4162968e-09 4.328838e-09 9.730962e-15
0000e0 a7 82 d3 b5 24 13 2f b3 90 42 6e 31 2c 12 b3 34
       -1.575875e-06 -4.076277e-08 3.4671395e-09 3.335457e-07
0000f0 a5 02 bc ab 4a c6 05 a8 be 76 e7 a5 0d 5d e9 31
       -1.3358937e-12 -7.42598e-15 -4.0152575e-16 6.791771e-09

exp_avg_sq f4 [64]
000000 7c 6f 4b 2e 70 8c c7 29 f6 fa 99 23 2f 38 f6 27
       4.6255874e-11 8.861737e-14 1.669458e-17 6.833963e-15
000010 23 3b 40 31 55 cc 72 27 bf 14 81 33 ff 8b 57 28
       2.7973293e-09 3.3695015e-15 6.010804e-08 1.1965254e-14
000020 79 03 07 2b 81 1f 16 2c a5 20 f1 2f 3a 6a c0 30
       4.7966454e-13 2.133377e-12 4.386084e-10 1.400003e-09
000030 ff 45 50 34 73 b5 38 28 66 29 9c 25 28 a3 e4 2b
       1.9396974e-07 1.0253397e-14 2.708974e-16 1.6245659e-12
000040 5c 5d 22 28 e1 46 e1 20 06 76 65 2b 4a ae c4 30
       9.013051e-15 3.8163386e-19 8.1520934e-13 1.4310413e-09
000050 45 d1 bf 28 1f 8a 7d 23 ba 44 26 28 26 25 15 33
       2.1296016e-14 1.3744406e-17 9.229754e-15 3.4725552e-08
000060 7d 3d e5 23 72 23 62 1e c0 df 7b 2c 2c 7a 73 28
       2.4854271e-17 1.197167e-20 3.5793452e-12 1.35157016e-14
000070 a9 fe 2e 2c d0 9a fa 27 ac 9e a5 30 1f bc 9e 2e
       2.4868252e-12 6.9556787e-15 1.2050427e-09 7.218425e-11
000080 10 b3 d6 29 8b 21 d8 28 40 7f 2b 35 0c c0 31 25
       9.5345715e-14 2.3995364e-14 6.388764e-07 1.5417371e-16
000090 52 67 38 25 a8 02 ae 27 d2 f1 2c 24 de dc 93 28
       1.5994462e-16 4.829758e-15 3.7501385e-17 1.6416064e-14
0000a0 ca 3c 82 29 0a d6 6b 2a 42 3f 86 2b 6d 21 29 2e
       5.783705e-14 2.0946453e-13 9.53883e-13 3.845584e-11
0000b0 ed 83 36 28 a4 00 38 2b ab a1 91 23 2c 7c 3e 23
       1.0131636e-14 6.537082e-13 1.57894e-17 1.0326215e-17
0000c0 58 80 2b 27 73 cc 67 25 23 05 dc 26 3b fe a1 33
       2.3800592e-15 2.0105326e-16 1.5266959e-15 7.543391e-08
0000d0 ce 10 a0 24 8d b0 d8 2d 23 40 7b 28 ad 1a 46 26
       6.941741e-17 2.4634761e-11 1.3947206e-14 6.87312e-16
0000e0 7e da 5b 2f a5 99 50 2b 97 22 3f 2c a7 e4 08 2e
       1.9995558e-10 7.410967e-13 2.7161934e-12 3.1125904e-11
0000f0 04 62 d5 27 6b 1b c9 27 0a f5 e6 25 a1 ae f3 2c
       5.9225645e-15 5.5818434e-15 4.0064685e-16 6.925863e-12
